checkpoint_critic.pth (torch_old, 439823 bytes, 11 tensors)

fcs1.weight f4 [256, 33]
0	0x18240623	2.1199601e-24
1	0x182a77d2	2.2032479e-24
2	0x956008fc	-4.5243527e-26
3	0x9828bf84	-2.1810182e-24
4	0x96d91c43	-3.5076076e-25
5	0x146c3257	1.1924883e-26
6	0x95842ba6	-5.338324e-26
7	0x986babea	-3.0459833e-24
8	0x97cd6323	-1.327284e-24
9	0x96db4bdf	-3.542924e-25
10	0x992cc52c	-8.93201e-24
11	0x97d9026f	-1.4023911e-24
12	0x982bf5c9	-2.2225322e-24
13	0x18a2865e	4.2011695e-24
14	0x18aea23b	4.5141757e-24
15	0x984b0d7d	-2.6243945e-24
16	0x16f018e6	3.8789804e-25
17	0x9666786b	-1.8617249e-25
18	0x16fc5049	4.0763463e-25
19	0x182fb908	2.2711637e-24
20	0x985c2140	-2.845112e-24
21	0x9783566a	-8.487491e-25
22	0x972acea4	-5.519078e-25
23	0x96567bd4	-1.7325856e-25
24	0x191fcadf	8.261077e-24
25	0x9666ea4c	-1.8653183e-25
26	0x98083af1	-1.7607346e-24
27	0x17c23346	1.2549899e-24
28	0x196aadae	1.2132591e-23
29	0x8022f6e9	-3.210982e-39
30	0x9793f636	-9.561805e-25
31	0x00d70a22	1.9748267e-38
32	0x955949bc	-4.3880967e-26
33	0xa54dcdcc	-1.7850642e-16
34	0x260c18fc	4.860612e-16
35	0x26f30aba	1.686442e-15
36	0xa586745f	-2.332415e-16
37	0xa3889818	-1.4809564e-17
38	0x259de4b9	2.7390147e-16
39	0x254213a0	1.6833467e-16
40	0xa5801226	-2.2216758e-16
41	0xa5157cba	-1.2965949e-16
42	0x2615d3e1	5.198191e-16
43	0x2682a42f	9.065064e-16
44	0x272035ec	2.2233692e-15
45	0xa6c21187	-1.3466205e-15
46	0xa684b5ea	-9.208648e-16
47	0x26904a02	1.0012067e-15
48	0xa6854a84	-9.248926e-16
49	0xa4bb9a64	-8.135987e-17
50	0x240d4828	3.063562e-17
51	0xa5865c27	-2.330774e-16
52	0x25a349ce	2.8326005e-16
53	0xa68f9858	-9.963911e-16
54	0x260fdaa4	4.9909405e-16
55	0x27613d82	3.1258366e-15
56	0x24f4980e	1.0607572e-16
57	0xa4a90af0	-7.3310596e-17
58	0x26e6a474	1.6004031e-15
59	0xa783ab2f	-3.65454e-15
60	0x262c3872	5.9750985e-16
61	0x26ad3d24	1.2020859e-15
62	0x80fd2f72	-2.32514e-38
63	0x26f633d8	1.7083731e-15
64	0x80aaf7e3	-1.570096e-38
65	0x251aec30	1.3437394e-16
66	0x84b97a49	-4.3605592e-36
67	0x86f589f4	-9.236146e-35
68	0x05d476e8	1.9980063e-35
69	0x83699e74	-6.865444e-37
70	0x04a06f5a	3.771808e-36
71	0x82926572	-2.1510999e-37
72	0x0553baba	9.9554686e-36
73	0x0608dc99	2.5740827e-35
74	0x85d60e05	-2.0129613e-35
75	0x05d07b57	1.9605534e-35
76	0x061f9190	3.001152e-35
77	0x06e525dc	8.6195855e-35
78	0x870082e2	-9.668113e-35
79	0x06a24d43	6.1051153e-35
80	0x8665c480	-4.3214478e-35
81	0x0730b0d2	1.3292731e-34
82	0x84fac1a2	-5.895254e-36
83	0x05285178	7.9142855e-36
84	0x85cd7243	-1.932008e-35
85	0x8622879c	-3.0568444e-35
86	0x0692c4ad	5.5208085e-35
87	0x060da61f	2.66412e-35
88	0x87ad49f7	-2.607362e-34
89	0x86a991af	-6.37848e-35
90	0x870380ae	-9.89316e-35
91	0x863c9c60	-3.5473756e-35
92	0x0738057a	1.3844231e-34
93	0x83871e4a	-7.941541e-37
94	0x87061f1c	-1.0090182e-34
95	0x00b9053a	1.6991442e-38
96	0x8583d2b6	-1.2396584e-35
97	0x80e606be	-2.1124583e-38
98	0x0442c501	2.289505e-36
99	0x20b09642	2.9914992e-19
100	0x1eb88ad7	1.953918e-20
101	0xa02683e7	-1.410439e-19
102	0x9f9d7b8c	-6.669648e-20
103	0x1ef8753c	2.6306508e-20
104	0x9f6863bd	-4.9210413e-20
105	0x9e7a8a00	-1.32634275e-20
106	0xa0d8b170	-3.6709242e-19
107	0x1f41deec	4.1053736e-20
108	0x1ef51043	2.594711e-20
109	0xa0acecb3	-2.9294568e-19
110	0x9f9e890b	-6.714232e-20
111	0x1fa12de9	6.8262104e-20
112	0x2100225a	4.341355e-19
113	0x1f90fde1	6.140638e-20
114	0xa0bdc972	-3.215115e-19
115	0x9fb47cb3	-7.643926e-20
116	0x1f3e2b46	4.026986e-20
117	0x1f54797c	4.4993236e-20
118	0x9cb3ec6c	-1.190634e-21
119	0x1fbb4ab5	7.932117e-20
120	0xa109b3e8	-4.665551e-19
121	0x21a91222	1.1456685e-18
122	0x207df859	2.1512105e-19
123	0x213dba15	6.428197e-19
124	0xa159970c	-7.372237e-19
125	0xa08aa3e9	-2.3486576e-19
126	0x21989342	1.0338899e-18
127	0xa0e4b637	-3.8745282e-19
128	0x00a5a056	1.5210375e-38
129	0xa1956a6d	-1.0124803e-18
130	0x00b09594	1.6216706e-38
131	0x1ec20f7a	2.054695e-20
132	0x92323851	-5.623631e-28
133	0x11b6bf89	2.883258e-28
134	0x1205965b	4.2152728e-28
135	0x91ad8978	-2.737931e-28
136	0x101435a1	2.9229168e-29
137	0x8fb8be34	-1.8217064e-29
138	0x90e25c6e	-8.928369e-29
139	0x10e88684	9.171512e-29
140	0x90e713d2	-9.114397e-29
141	0x925c5328	-6.952226e-28
142	0x11aa1c1f	2.6838602e-28
143	0x115b9086	1.7320589e-28
144	0x900d345a	-2.7847677e-29
145	0x91790a7b	-1.9645866e-28
146	0x11bf2225	3.015553e-28
147	0x910a8abc	-1.0929031e-28
148	0x8f775e1b	-1.2196164e-29
149	0x8fd8118b	-2.1306002e-29
150	0x9100bfd5	-1.0156532e-28
151	0x113bc700	1.481302e-28
152	0x91fad24d	-3.9572653e-28
153	0x8f0e6438	-7.020442e-30
154	0x126b35c3	7.421919e-28
155	0x11014d68	1.0200158e-28
156	0x12726203	7.6482544e-28
157	0x9211bde8	-4.598801e-28
158	0x0f74abe0	1.2063231e-29
159	0x11c16235	3.0510556e-28
160	0x1204f51f	4.195399e-28
161	0x80a2662b	-1.4914001e-38
162	0x91699b9e	-1.8428412e-28
163	0x80128c65	-1.703403e-39
164	0x904a771e	-3.992924e-29
165	0x1b8a62b2	2.2893965e-22
166	0x1c036b75	4.348315e-22
167	0x9807f120	-1.7570078e-24
168	0x1ca6e9fc	1.1045442e-21
169	0x1b33ed50	1.4883213e-22
170	0x16371d80	1.4791931e-25
171	0x9a3bf9d0	-3.887249e-23
172	0x1c51e034	6.9442075e-22
173	0x9b30bbda	-1.4619077e-22
174	0x1ba68454	2.7547911e-22
175	0x1a93355e	6.0883994e-23
176	0x1d594e49	2.8760183e-21
177	0x9bf132a2	-3.9902826e-22
178	0x1d2d01f6	2.2897373e-21
179	0x1d2d351e	2.292382e-21
180	0x1da61946	4.3965966e-21
181	0x9a0315b0	-2.7107684e-23
182	0x998950ad	-1.4198053e-23
183	0x9bd35487	-3.4961646e-22
184	0x1ba1e309	2.6781934e-22
185	0x9d28a0bb	-2.231771e-21
186	0x9bd83b90	-3.5772694e-22
187	0x9baeb45a	-2.8902435e-22
188	0x1ba6b568	2.7579627e-22
189	0x1c42a8bc	6.44073e-22
190	0x1cacb320	1.1428308e-21
191	0x1c36a7f0	6.0435803e-22
192	0x1c1346ed	4.872989e-22
193	0x1ca173aa	1.0683985e-21
194	0x00cdbadb	1.8893308e-38
195	0x1b7de0c0	2.100029e-22
196	0x01e606fc	8.449868e-38
197	0x9b2ffcbe	-1.4557326e-22
198	0x9c690584	-7.710036e-22
199	0x9c7d7707	-8.3864517e-22
200	0x9bebd8fe	-3.9017717e-22
201	0x1bb494fa	2.9874776e-22
202	0x9a179649	-3.1347468e-23
203	0x1accdfc3	8.473393e-23
204	0x9acb39cb	-8.40522e-23
205	0x1b88e548	2.2647482e-22
206	0x1bb768ff	3.0342663e-22
207	0x9bb9c941	-3.073574e-22
208	0x1b6911e6	1.9279092e-22
209	0x9cbad572	-1.2363622e-21
210	0x1cf8a18b	1.6453021e-21
211	0x9bbdee9c	-3.1421625e-22
212	0x9ccd0c46	-1.3568935e-21
213	0x9bd97255	-3.5973524e-22
214	0x992c54a4	-8.909285e-24
215	0x99beabd0	-1.9714934e-23
216	0x1bd6ecd0	3.5556367e-22
217	0x1bc49715	3.2523114e-22
218	0x1bbd94a8	3.1363494e-22
219	0x1a4ab492	4.1918484e-23
220	0x9cd60f16	-1.4165232e-21
221	0x9c778b7a	-8.1905714e-22
222	0x1ce853d6	1.5374143e-21
223	0x9c1fa2aa	-5.2818925e-22
224	0x1c4b6cd7	6.730774e-22
225	0x9c4b8fd1	-6.7352944e-22
226	0x9ce285db	-1.4990026e-21
227	0x00473a88	6.541317e-39
228	0x1c002dd1	4.2410864e-22
229	0x80b74676	-1.6831172e-38
230	0x9a93b185	-6.1084573e-23
231	0x0a2f9525	8.4539945e-33
232	0x898828b8	-3.27791e-33
233	0x88008f1a	-3.8686814e-34
234	0x0b1ced03	3.0222815e-32
235	0x098fb048	3.4591772e-33
236	0x893b8015	-2.256953e-33
237	0x085e3572	6.686852e-34
238	0x09c9e22b	4.8601677e-33
239	0x08ade6c0	1.0466308e-33
240	0x090e50c7	1.713061e-33
241	0x8af19ad5	-2.3265697e-32
242	0x8b2e5945	-3.357834e-32
243	0x0aaf22f1	1.686503e-32
244	0x0b2d7d7a	3.3412986e-32
245	0x09da9348	5.2620094e-33
246	0x884c6c48	-6.15163e-34
247	0x899f6283	-3.8370498e-33
248	0x09ebfff9	5.6814908e-33
249	0x0a66fe7a	1.1121959e-32
250	0x09a74f1a	4.0278174e-33
251	0x09ae6f82	4.1993838e-33
252	0x09f74ca9	5.9535178e-33
253	0x8a24fbbd	-7.9436595e-33
254	0x09a2bf88	3.9180196e-33
255	0x8b72f22e	-4.67897e-32

fcs1.bias f4 [256]
0	0x97a7cf1c	-1.0844404e-24
1	0xa7108e29	-2.006108e-15
2	0x85406eb8	-9.0481324e-36
3	0xa09e0c3a	-2.6774332e-19
4	0x91d663dd	-3.3824792e-28
5	0xa4984e27	-6.605189e-17
6	0xa52f78f7	-1.5219815e-16
7	0x89bb1975	-4.5042552e-33
8	0x99fe55d2	-2.6297647e-23
9	0xa1e12588	-1.5256527e-18
10	0x802e954c	-4.27799e-39
11	0x1e07813e	7.173567e-21
12	0x95723a4c	-4.89175e-26
13	0x01df37d0	8.199735e-38
14	0x89b1b49b	-4.278104e-33
15	0xbb08159e	-0.0020764838
16	0x0a72548f	1.166778e-32
17	0x8cfcc10d	-3.8942936e-31
18	0x3af62343	0.0018778819
19	0x8c8a6960	-2.1325687e-31
20	0x03277000	4.920546e-37
21	0x8b9b6dbd	-5.9868944e-32
22	0x9eebd5b7	-2.4969983e-20
23	0xb621d635	-2.4115554e-06
24	0x84462cd2	-2.3295369e-36
25	0x805ea97a	-8.693333e-39
26	0x8e193736	-1.888529e-30
27	0x983d6636	-2.447928e-24
28	0xbaeda0cd	-0.0018129587
29	0x89801330	-3.0832923e-33
30	0xa3e8005d	-2.5153644e-17
31	0x13c01f91	4.849874e-27
32	0x8e069f9c	-1.6593624e-30
33	0xba1ec430	-0.0006056456
34	0x89cc6606	-4.9207156e-33
35	0x98cbfb8c	-5.2728268e-24
36	0x2b0f2fc8	5.0870115e-13
37	0x977af400	-8.108733e-25
38	0x97310a7a	-5.720501e-25
39	0x17c85092	1.2945036e-24
40	0x8351a6ed	-6.16112e-37
41	0x13802b07	3.235417e-27
42	0x99fba2bf	-2.6018524e-23
43	0x920a5f46	-4.3662556e-28
44	0xb6d9e40f	-6.4936535e-06
45	0x9dc49935	-5.203918e-21
46	0x9802bc19	-1.6897071e-24
47	0x39676179	0.00022066188
48	0x3aaa6eb2	0.001300296
49	0xba7dcb83	-0.00096815097
50	0x937baa76	-3.1764698e-27
51	0xa50746d2	-1.1733378e-16
52	0xbaa65ab9	-0.0012691832
53	0x8cc492ac	-3.0286856e-31
54	0x9db05a48	-4.668016e-21
55	0x9e04048a	-6.9889605e-21
56	0xba8f1ca8	-0.0010918574
57	0x1725d392	5.3581415e-25
58	0x1d9c0d61	4.130669e-21
59	0xac13cb43	-2.100279e-12
60	0x9401ec44	-6.559431e-27
61	0xbaae698c	-0.0013306602
62	0xba94d541	-0.0011355059
63	0x39b93d8b	0.00035331803
64	0x8f973d0e	-1.4913267e-29
65	0x8e325dd4	-2.198537e-30
66	0x953abf9a	-3.7713548e-26
67	0xba9eefc5	-0.00121259
68	0x8d58ba0e	-6.6784094e-31
69	0x803a65a2	-5.362918e-39
70	0x9925812e	-8.556388e-24
71	0x95307baf	-3.5640486e-26
72	0x942cbef1	-8.7214374e-27
73	0x8080943b	-1.1808119e-38
74	0x8cc7c9bb	-3.0782217e-31
75	0xbad423eb	-0.0016185021
76	0xb40f1cbd	-1.3328368e-07
77	0x88400ce8	-5.779307e-34
78	0xbab47fe4	-0.0013771025
79	0x111bef8b	1.2301159e-28
80	0xb7c9ed1a	-2.4071476e-05
81	0xb9516635	-0.00019969868
82	0xba81b8bc	-0.0009896974
83	0x91095b98	-1.0835619e-28
84	0xa39d2a25	-1.7039823e-17
85	0x9902d86b	-6.764548e-24
86	0x9779a2eb	-8.066187e-25
87	0x85b03db4	-1.6573627e-35
88	0x8f20b2d3	-7.923049e-30
89	0x3a0b4f0c	0.0005314208
90	0x971ebdab	-5.129195e-25
91	0x21f9b2a7	1.6920185e-18
92	0x8f4b36f8	-1.0019259e-29
93	0xa38ef37c	-1.549879e-17
94	0xbaa3b8ae	-0.0012490952
95	0x8b77f912	-4.775785e-32
96	0xb0806dde	-9.344452e-10
97	0x886f825a	-7.2074674e-34
98	0xa09f21ef	-2.6958103e-19
99	0x945fc045	-1.1296541e-26
100	0x8fe1a4c6	-2.2250181e-29
101	0x074bc33e	1.5329399e-34
102	0x893e7722	-2.2926434e-33
103	0x9591269f	-5.862597e-26
104	0xbac53948	-0.0015046978
105	0x8995e6ca	-3.608748e-33
106	0x924f20b6	-6.5358e-28
107	0xb2e4d776	-2.6640674e-08
108	0x95286202	-3.4004644e-26
109	0x8a9918a1	-1.4742628e-32
110	0xb803256c	-3.1267686e-05
111	0x3ab65de3	0.0013913478
112	0x0535b602	8.544009e-36
113	0x951fc61a	-3.226607e-26
114	0xba36c7e9	-0.0006972538
115	0x2e4a1a99	4.5953106e-11
116	0x2de70895	2.626547e-11
117	0xb22b1f21	-9.960588e-09
118	0x95f95faf	-1.0072126e-25
119	0xa1178851	-5.1341203e-19
120	0x3a0f8370	0.0005474603
121	0x9de93e25	-6.1738842e-21
122	0x3b184cb5	0.002323908
123	0x8eeceebc	-5.8408385e-30
124	0x01884fdd	5.007311e-38
125	0x893dd959	-2.2852244e-33
126	0x36e588fa	6.840678e-06
127	0x97d9a313	-1.4064462e-24
128	0x8e96cd36	-3.7175466e-30
129	0x2cd137ed	5.9463463e-12
130	0x8d1ca017	-4.8263913e-31
131	0xa2d8c30b	-5.8753427e-18
132	0x8c869d82	-2.0740766e-31
133	0xb9823b9c	-0.00024839945
134	0x904db212	-4.0566302e-29
135	0xba80d6c2	-0.0009829628
136	0xa01709ea	-1.2793478e-19
137	0x97606099	-7.2500227e-25
138	0xba7d60a4	-0.00096655847
139	0x80543157	-7.731881e-39
140	0xa3c235d2	-2.1056316e-17
141	0x85dad8fb	-2.0580328e-35
142	0x91b353c0	-2.8292835e-28
143	0x2c21a740	2.2972318e-12
144	0x918fb3cc	-2.267223e-28
145	0x89a24ea2	-3.9074027e-33
146	0xbb01ba95	-0.001979505
147	0x8c1ac84e	-1.1924005e-31
148	0x3aab4e12	0.0013069531
149	0xb08263d1	-9.487114e-10
150	0x09970668	3.6357952e-33
151	0x02a79458	2.462359e-37
152	0x0847421f	5.996211e-34
153	0xa3199753	-8.326191e-18
154	0xa2403782	-2.6050238e-18
155	0x8c95bc4f	-2.307042e-31
156	0x39b1df80	0.0003392659
157	0x941f929e	-8.056364e-27
158	0x24b6e3a5	7.931556e-17
159	0x9ea70972	-1.768572e-20
160	0x9d8e721d	-3.7705077e-21
161	0x89a66bd3	-4.0064444e-33
162	0xb926f048	-0.00015920505
163	0xa7499223	-2.7973574e-15
164	0x89e00013	-5.392611e-33
165	0x8dde898e	-1.3714921e-30
166	0xaa05fb6b	-1.1900001e-13
167	0x8ee0bd50	-5.5402565e-30
168	0x8fbaf108	-1.8433858e-29
169	0xab061d40	-4.7646956e-13
170	0x0750d40d	1.5710497e-34
171	0xa8f02ffe	-2.6666166e-14
172	0x3ae679b2	0.0017583875
173	0xa0693e60	-1.9756506e-19
174	0x93064654	-1.6947852e-27
175	0x8d69171a	-7.1826476e-31
176	0xa2bdf014	-5.1482745e-18
177	0x8cfc3e8c	-3.8864392e-31
178	0xa000dc2e	-1.0914873e-19
179	0x0b2db9e8	3.3458448e-32
180	0x0bc5bed1	7.616875e-32
181	0x900abb07	-2.7359782e-29
182	0x90e93c3d	-9.199511e-29
183	0x2d8c3323	1.5938867e-11
184	0x05c6aa56	1.8682402e-35
185	0x89a7a835	-4.036197e-33
186	0x9581c840	-5.2418624e-26
187	0xb43f473f	-1.781418e-07
188	0x8b162e0d	-2.8923594e-32
189	0x263d6365	6.570725e-16
190	0x8d6d7fae	-7.318495e-31
191	0x993c4942	-9.7341665e-24
192	0x91aeca2c	-2.7576958e-28
193	0x9f8c10eb	-5.9320295e-20
194	0x9f1dd652	-3.3423325e-20
195	0x95c65798	-8.010976e-26
196	0xb868fb6d	-5.554727e-05
197	0x94d61671	-2.161733e-26
198	0x984f16a8	-2.6765561e-24
199	0xba663d58	-0.00087829446
200	0x93fb564c	-6.3446403e-27
201	0x96103ecd	-1.1652044e-25
202	0x9851cd9c	-2.7116423e-24
203	0x11dcaa4c	3.4814833e-28
204	0x96098473	-1.1108565e-25
205	0x8b6afeb5	-4.525838e-32
206	0x902edf6a	-3.448756e-29
207	0xba893b2a	-0.0010469903
208	0x8d15c188	-4.6147125e-31
209	0x0daecf28	1.0773449e-30
210	0x3ac94954	0.0015356936
211	0x91fa330f	-3.9474513e-28
212	0x96f3a401	-3.9362268e-25
213	0x879abfbd	-2.3284038e-34
214	0xba7aa7d5	-0.0009561752
215	0x9710ef81	-4.6831206e-25
216	0x845fdd11	-2.6315033e-36
217	0x3adcef46	0.0016855977
218	0x8bae3173	-6.7096765e-32
219	0x8d06d947	-4.1553476e-31
220	0xba83f0d8	-0.0010066284
221	0x8e06d725	-1.6620364e-30
222	0xa1d3a952	-1.4342735e-18
223	0xa7be09ed	-5.2746355e-15
224	0xa0c95c6d	-3.4111887e-19
225	0x8cc01fef	-2.9601503e-31
226	0x9a890e3f	-5.668489e-23
227	0x8a9ffeb1	-1.5406947e-32
228	0xb60cb3a5	-2.0966193e-06
229	0xba2972fb	-0.0006463972
230	0x949891ed	-1.5405635e-26
231	0xa036ec36	-1.5494155e-19
232	0xba815d47	-0.0009869718
233	0xa78cbd2d	-3.906291e-15
234	0xa2958813	-4.0530605e-18
235	0x909e7c1e	-6.2511244e-29
236	0x96dab4a5	-3.5333802e-25
237	0xb3ebd225	-1.0981265e-07
238	0x8c726820	-1.8674336e-31
239	0x92c333ff	-1.2319048e-27
240	0x8d494d90	-6.203127e-31
241	0x8dbd9adb	-1.1685304e-30
242	0xa2c30b76	-5.286699e-18
243	0xbae3ec1d	-0.0017389093
244	0x368f3ab9	4.2685683e-06
245	0xacf4bb9a	-6.955725e-12
246	0x918c035b	-2.2090173e-28
247	0x926edce4	-7.5371827e-28
248	0x983ac65b	-2.414008e-24
249	0x8a9b63a5	-1.4963439e-32
250	0x9dee9809	-6.3155276e-21
251	0x99b50f61	-1.8721173e-23
252	0x39bba2da	0.00035788753
253	0xacadd31e	-4.9403944e-12
254	0xba73e626	-0.0009304009
255	0x9b6dd0e1	-1.9671673e-22

bn1.weight f4 [256]
0	0x3f1851b1	0.5949965
1	0x3ece5d48	0.40305543
2	0x3f343551	0.70393854
3	0x3ae6bc00	0.0017603636
4	0x3ee5bb02	0.44869238
5	0x3ecbe174	0.39820445
6	0x3defc8e8	0.11708242
7	0x3ef3e1ea	0.47633296
8	0x3f1dc4d0	0.6162844
9	0x3c651500	0.013982058
10	0x3f68d688	0.9095235
11	0x3f487e77	0.7831797
12	0x3f7e4924	0.99330354
13	0x3e91f6ba	0.2850855
14	0x3e151aec	0.14561051
15	0x3f4e20eb	0.8051898
16	0x3f78506c	0.96997714
17	0x3e55943c	0.20857328
18	0x3e53a034	0.20666581
19	0x3eed1d32	0.46311337
20	0x3f6cd6fe	0.9251555
21	0x3ed869ca	0.4226821
22	0x3cacda00	0.021100044
23	0x3e961664	0.29313958
24	0x3e5afe2c	0.21386021
25	0x3f60812e	0.8769711
26	0x3e098208	0.13428509
27	0x3f5f8ca1	0.8732396
28	0x3f2fd1dc	0.68679595
29	0x3ee924b4	0.45535815
30	0x3ebfbd52	0.37449127
31	0x3f46b501	0.7761994
32	0x3e5e1668	0.21688235
33	0x3e9d1b90	0.3068509
34	0x3f70f153	0.9411823
35	0x3e9d0336	0.30666512
36	0x3f0cfef9	0.5507656
37	0x3f67f663	0.9061033
38	0x3ddce4b0	0.10785806
39	0x3f152ad9	0.58268505
40	0x3f038cd8	0.51386786
41	0x3e7785b0	0.24172091
42	0x3f675754	0.9036763
43	0x3f5827a4	0.84435487
44	0x3eef39ea	0.46723872
45	0x3ee47730	0.44622183
46	0x3f4fba1e	0.8114337
47	0x3eab4d18	0.33457255
48	0x3f487734	0.7830689
49	0x3e2a73dc	0.1664576
50	0x3db6d750	0.08927786
51	0x3f557638	0.8338351
52	0x3f5750dc	0.84107757
53	0x3de3f790	0.11131203
54	0x3ec76088	0.38940835
55	0x3f365fc1	0.7123986
56	0x3f446045	0.76709396
57	0x3f4c44ac	0.79792285
58	0x3f59b555	0.85042316
59	0x3e8ad5f4	0.27116358
60	0x3f1b4671	0.6065436
61	0x3f6df398	0.9294982
62	0x3db7a440	0.08966875
63	0x3f5306f8	0.8243251
64	0x3f2061ec	0.62649417
65	0x3f05987a	0.52185786
66	0x3f7ecd70	0.9953222
67	0x3e95aaf4	0.2923199
68	0x3eb9833c	0.36232936
69	0x3e038480	0.12843513
70	0x3f6bc555	0.9209798
71	0x3e09bf0c	0.13451785
72	0x3f7278b9	0.9471546
73	0x3e073dd4	0.1320718
74	0x3f495f54	0.78661084
75	0x3e802aa2	0.25032526
76	0x3f707c7e	0.9393996
77	0x3e293244	0.16523081
78	0x3e34752c	0.17622823
79	0x3eb62324	0.35573685
80	0x3dc8bbc8	0.098014414
81	0x3f79aaa3	0.97525996
82	0x3f2f533a	0.6848637
83	0x3e69e954	0.22842914
84	0x3df9cf68	0.12197763
85	0x3eab6256	0.33473462
86	0x3f1339bf	0.5750999
87	0x3e8cbac4	0.2748624
88	0x3f4a6173	0.79054946
89	0x3e8250c2	0.25452238
90	0x3f2623c9	0.64898354
91	0x3f5c289b	0.8599946
92	0x3e14ff5c	0.14550537
93	0x3de07df8	0.10961527
94	0x3cb27d20	0.02178818
95	0x3f181633	0.59408873
96	0x3f647e3b	0.8925511
97	0x3e395a90	0.18100953
98	0x3edd8560	0.4326582
99	0x3f5020e1	0.8130017
100	0x3f63518b	0.887963
101	0x3f4630ed	0.77418405
102	0x3f28fe48	0.66013
103	0x3f1636eb	0.5867755
104	0x3f0965ee	0.5367116
105	0x3f6fbf5d	0.9365137
106	0x3f0491a1	0.5178471
107	0x3f31beaf	0.69431585
108	0x3eed511c	0.46350944
109	0x3f655fde	0.89599407
110	0x3b92b700	0.0044773817
111	0x3eae953e	0.34098238
112	0x3caa9ae0	0.020825803
113	0x3f1e0f3f	0.61742014
114	0x3ec56d56	0.3855998
115	0x3db670a8	0.08908206
116	0x3defac10	0.1170274
117	0x3f24829a	0.6426178
118	0x3f601ce4	0.87544084
119	0x3f6d09ee	0.92593277
120	0x3f57d809	0.8431402
121	0x3dc54c08	0.096336424
122	0x3f6a67b8	0.9156451
123	0x3f7a0343	0.97661227
124	0x3f063351	0.5242205
125	0x3ca3a020	0.019973814
126	0x3e0dd1c0	0.13849545
127	0x3d6a91e0	0.057268023
128	0x3f149e22	0.5805379
129	0x3f6943e1	0.911192
130	0x3f521baf	0.8207349
131	0x3e837f60	0.25683117
132	0x3e909014	0.28234923
133	0x3f1e44f9	0.61823994
134	0x3e6d3a18	0.23166692
135	0x3ee7840a	0.45217925
136	0x3f25092a	0.6446711
137	0x3ea2418c	0.31690633
138	0x3f2ddc69	0.67914444
139	0x3edb8d4c	0.42881238
140	0x3f75ca05	0.9601138
141	0x3db6a9e0	0.0891912
142	0x3f6c0a9e	0.922037
143	0x3f56523b	0.83719224
144	0x3d560080	0.05224657
145	0x3f1e14bf	0.61750406
146	0x3edf39a2	0.43598658
147	0x3f3c2177	0.73488563
148	0x3f5c8656	0.8614248
149	0x3e6ce20c	0.23133105
150	0x3e5ccc3c	0.21562284
151	0x3e0bc998	0.1365112
152	0x3f5ce96e	0.86293685
153	0x3da64fa0	0.08120656
154	0x3e413d78	0.18871105
155	0x3f735006	0.9504398
156	0x3f41f65d	0.75766546
157	0x3f57dc16	0.843202
158	0x3f6e480a	0.9307867
159	0x3d8294e0	0.06376052
160	0x3ec04f0e	0.37560314
161	0x3eea6ab6	0.4578454
162	0x3f7665f0	0.96249294
163	0x3eb7a8a6	0.35870856
164	0x3eeedc04	0.46652234
165	0x3f489973	0.78359145
166	0x3f42ad47	0.7604565
167	0x3e31d730	0.17367244
168	0x3d868598	0.0656845
169	0x3e9f5226	0.31117362
170	0x3f28d8f3	0.6595604
171	0x3f79ce5e	0.97580516
172	0x3f39b71e	0.7254504
173	0x3f4a107e	0.78931415
174	0x3f27651b	0.6538865
175	0x3ebeee1e	0.37291044
176	0x3ed5c05e	0.41748327
177	0x3f6baa17	0.9205641
178	0x3f1b43ba	0.6065022
179	0x3f19935e	0.5999049
180	0x3f4ae7d3	0.79259986
181	0x3f5c4488	0.8604207
182	0x3f24868d	0.6426781
183	0x3ee62a4c	0.44954145
184	0x3e8ec54c	0.278849
185	0x3e48e408	0.19618237
186	0x3e800654	0.25004828
187	0x3f682c33	0.9069244
188	0x3f65e844	0.89807534
189	0x3e714c98	0.23564374
190	0x3f6bfac5	0.9217952
191	0x3ebddc76	0.3708226
192	0x3ebf4f7e	0.37365335
193	0x3f28a1b5	0.65871745
194	0x3dbfa1f0	0.09357059
195	0x3e5115b8	0.20418441
196	0x3eda8ce4	0.42685616
197	0x3eaf8b42	0.34285933
198	0x3f40a058	0.75244665
199	0x3ec374d8	0.38175082
200	0x3d9766e0	0.07392669
201	0x3d8476a8	0.064679444
202	0x3f7b98fd	0.98280317
203	0x3f39b8ac	0.7254741
204	0x3b168e00	0.0022972822
205	0x3db7e790	0.08979714
206	0x3e3ca5d0	0.18422627
207	0x3f73eac4	0.952801
208	0x3f45a569	0.7720552
209	0x3f29c851	0.66321284
210	0x3f4876cf	0.7830629
211	0x3f15ae99	0.5846954
212	0x3f5b43bf	0.8565025
213	0x3dc78520	0.097421885
214	0x3f64958c	0.8929069
215	0x3f3a8226	0.7285484
216	0x3f2a7cbb	0.66596574
217	0x3f51d9dd	0.8197306
218	0x3ecdfc3c	0.40231502
219	0x3e8662c4	0.26247227
220	0x3eba5ba6	0.36398047
221	0x3dffdf50	0.12493765
222	0x3f00df53	0.50340766
223	0x3f41d61f	0.7571735
224	0x3f17d3e9	0.59307724
225	0x3ef726c8	0.48271775
226	0x3f306ce9	0.68916184
227	0x3d3474b0	0.044056594
228	0x3e2f601c	0.17126507
229	0x3d822228	0.06354171
230	0x3f7f414d	0.99709016
231	0x3d3a7be0	0.045528293
232	0x3f3ccde2	0.7375165
233	0x3f5c01ae	0.85940063
234	0x3eb76c40	0.35824776
235	0x3ed7a840	0.42120552
236	0x3f69261c	0.91073775
237	0x3dbb0060	0.09130931
238	0x3aa8ba00	0.0012872815
239	0x3eda77e6	0.426696
240	0x3edf3894	0.43597853
241	0x3e9737d4	0.2953478
242	0x3f09fc37	0.53900474
243	0x3f441b49	0.76604134
244	0x3f447bf3	0.7675163
245	0x3f254931	0.64564806
246	0x3f5a65fb	0.8531186
247	0x3e88a826	0.26690787
248	0x3f088cd6	0.533399
249	0x3f2ae997	0.6676268
250	0x3f292a1e	0.6607989
251	0x3ea42778	0.32061362
252	0x3f67f1b4	0.90603185
253	0x3df17868	0.11790544
254	0x3e868be4	0.26278603
255	0x3ca6e3e0	0.020372331

bn1.bias f4 [256]
0	0x00000000	0.0
1	0x00000000	0.0
2	0x00000000	0.0
3	0x00000000	0.0
4	0x00000000	0.0
5	0x00000000	0.0
6	0x00000000	0.0
7	0x00000000	0.0
8	0x00000000	0.0
9	0x00000000	0.0
10	0x00000000	0.0
11	0x00000000	0.0
12	0x00000000	0.0
13	0x00000000	0.0
14	0x00000000	0.0
15	0x00000000	0.0
16	0x00000000	0.0
17	0x00000000	0.0
18	0x00000000	0.0
19	0x00000000	0.0
20	0x00000000	0.0
21	0x00000000	0.0
22	0x00000000	0.0
23	0x00000000	0.0
24	0x00000000	0.0
25	0x00000000	0.0
26	0x00000000	0.0
27	0x00000000	0.0
28	0x00000000	0.0
29	0x00000000	0.0
30	0x00000000	0.0
31	0x00000000	0.0
32	0x00000000	0.0
33	0x00000000	0.0
34	0x00000000	0.0
35	0x00000000	0.0
36	0x00000000	0.0
37	0x00000000	0.0
38	0x00000000	0.0
39	0x00000000	0.0
40	0x00000000	0.0
41	0x00000000	0.0
42	0x00000000	0.0
43	0x00000000	0.0
44	0x00000000	0.0
45	0x00000000	0.0
46	0x00000000	0.0
47	0x00000000	0.0
48	0x00000000	0.0
49	0x00000000	0.0
50	0x00000000	0.0
51	0x00000000	0.0
52	0x00000000	0.0
53	0x00000000	0.0
54	0x00000000	0.0
55	0x00000000	0.0
56	0x00000000	0.0
57	0x00000000	0.0
58	0x00000000	0.0
59	0x00000000	0.0
60	0x00000000	0.0
61	0x00000000	0.0
62	0x00000000	0.0
63	0x00000000	0.0
64	0x00000000	0.0
65	0x00000000	0.0
66	0x00000000	0.0
67	0x00000000	0.0
68	0x00000000	0.0
69	0x00000000	0.0
70	0x00000000	0.0
71	0x00000000	0.0
72	0x00000000	0.0
73	0x00000000	0.0
74	0x00000000	0.0
75	0x00000000	0.0
76	0x00000000	0.0
77	0x00000000	0.0
78	0x00000000	0.0
79	0x00000000	0.0
80	0x00000000	0.0
81	0x00000000	0.0
82	0x00000000	0.0
83	0x00000000	0.0
84	0x00000000	0.0
85	0x00000000	0.0
86	0x00000000	0.0
87	0x00000000	0.0
88	0x00000000	0.0
89	0x00000000	0.0
90	0x00000000	0.0
91	0x00000000	0.0
92	0x00000000	0.0
93	0x00000000	0.0
94	0x00000000	0.0
95	0x00000000	0.0
96	0x00000000	0.0
97	0x00000000	0.0
98	0x00000000	0.0
99	0x00000000	0.0
100	0x00000000	0.0
101	0x00000000	0.0
102	0x00000000	0.0
103	0x00000000	0.0
104	0x00000000	0.0
105	0x00000000	0.0
106	0x00000000	0.0
107	0x00000000	0.0
108	0x00000000	0.0
109	0x00000000	0.0
110	0x00000000	0.0
111	0x00000000	0.0
112	0x00000000	0.0
113	0x00000000	0.0
114	0x00000000	0.0
115	0x00000000	0.0
116	0x00000000	0.0
117	0x00000000	0.0
118	0x00000000	0.0
119	0x00000000	0.0
120	0x00000000	0.0
121	0x00000000	0.0
122	0x00000000	0.0
123	0x00000000	0.0
124	0x00000000	0.0
125	0x00000000	0.0
126	0x00000000	0.0
127	0x00000000	0.0
128	0x00000000	0.0
129	0x00000000	0.0
130	0x00000000	0.0
131	0x00000000	0.0
132	0x00000000	0.0
133	0x00000000	0.0
134	0x00000000	0.0
135	0x00000000	0.0
136	0x00000000	0.0
137	0x00000000	0.0
138	0x00000000	0.0
139	0x00000000	0.0
140	0x00000000	0.0
141	0x00000000	0.0
142	0x00000000	0.0
143	0x00000000	0.0
144	0x00000000	0.0
145	0x00000000	0.0
146	0x00000000	0.0
147	0x00000000	0.0
148	0x00000000	0.0
149	0x00000000	0.0
150	0x00000000	0.0
151	0x00000000	0.0
152	0x00000000	0.0
153	0x00000000	0.0
154	0x00000000	0.0
155	0x00000000	0.0
156	0x00000000	0.0
157	0x00000000	0.0
158	0x00000000	0.0
159	0x00000000	0.0
160	0x00000000	0.0
161	0x00000000	0.0
162	0x00000000	0.0
163	0x00000000	0.0
164	0x00000000	0.0
165	0x00000000	0.0
166	0x00000000	0.0
167	0x00000000	0.0
168	0x00000000	0.0
169	0x00000000	0.0
170	0x00000000	0.0
171	0x00000000	0.0
172	0x00000000	0.0
173	0x00000000	0.0
174	0x00000000	0.0
175	0x00000000	0.0
176	0x00000000	0.0
177	0x00000000	0.0
178	0x00000000	0.0
179	0x00000000	0.0
180	0x00000000	0.0
181	0x00000000	0.0
182	0x00000000	0.0
183	0x00000000	0.0
184	0x00000000	0.0
185	0x00000000	0.0
186	0x00000000	0.0
187	0x00000000	0.0
188	0x00000000	0.0
189	0x00000000	0.0
190	0x00000000	0.0
191	0x00000000	0.0
192	0x00000000	0.0
193	0x00000000	0.0
194	0x00000000	0.0
195	0x00000000	0.0
196	0x00000000	0.0
197	0x00000000	0.0
198	0x00000000	0.0
199	0x00000000	0.0
200	0x00000000	0.0
201	0x00000000	0.0
202	0x00000000	0.0
203	0x00000000	0.0
204	0x00000000	0.0
205	0x00000000	0.0
206	0x00000000	0.0
207	0x00000000	0.0
208	0x00000000	0.0
209	0x00000000	0.0
210	0x00000000	0.0
211	0x00000000	0.0
212	0x00000000	0.0
213	0x00000000	0.0
214	0x00000000	0.0
215	0x00000000	0.0
216	0x00000000	0.0
217	0x00000000	0.0
218	0x00000000	0.0
219	0x00000000	0.0
220	0x00000000	0.0
221	0x00000000	0.0
222	0x00000000	0.0
223	0x00000000	0.0
224	0x00000000	0.0
225	0x00000000	0.0
226	0x00000000	0.0
227	0x00000000	0.0
228	0x00000000	0.0
229	0x00000000	0.0
230	0x00000000	0.0
231	0x00000000	0.0
232	0x00000000	0.0
233	0x00000000	0.0
234	0x00000000	0.0
235	0x00000000	0.0
236	0x00000000	0.0
237	0x00000000	0.0
238	0x00000000	0.0
239	0x00000000	0.0
240	0x00000000	0.0
241	0x00000000	0.0
242	0x00000000	0.0
243	0x00000000	0.0
244	0x00000000	0.0
245	0x00000000	0.0
246	0x00000000	0.0
247	0x00000000	0.0
248	0x00000000	0.0
249	0x00000000	0.0
250	0x00000000	0.0
251	0x00000000	0.0
252	0x00000000	0.0
253	0x00000000	0.0
254	0x00000000	0.0
255	0x00000000	0.0

bn1.running_mean f4 [256]
0	0x00000000	0.0
1	0x00000000	0.0
2	0x00000000	0.0
3	0x00000000	0.0
4	0x00000000	0.0
5	0x00000000	0.0
6	0x00000000	0.0
7	0x00000000	0.0
8	0x00000000	0.0
9	0x00000000	0.0
10	0x00000000	0.0
11	0x00000000	0.0
12	0x00000000	0.0
13	0x00000000	0.0
14	0x00000000	0.0
15	0x00000000	0.0
16	0x00000000	0.0
17	0x00000000	0.0
18	0x00000000	0.0
19	0x00000000	0.0
20	0x00000000	0.0
21	0x00000000	0.0
22	0x00000000	0.0
23	0x00000000	0.0
24	0x00000000	0.0
25	0x00000000	0.0
26	0x00000000	0.0
27	0x00000000	0.0
28	0x00000000	0.0
29	0x00000000	0.0
30	0x00000000	0.0
31	0x00000000	0.0
32	0x00000000	0.0
33	0x00000000	0.0
34	0x00000000	0.0
35	0x00000000	0.0
36	0x00000000	0.0
37	0x00000000	0.0
38	0x00000000	0.0
39	0x00000000	0.0
40	0x00000000	0.0
41	0x00000000	0.0
42	0x00000000	0.0
43	0x00000000	0.0
44	0x00000000	0.0
45	0x00000000	0.0
46	0x00000000	0.0
47	0x00000000	0.0
48	0x00000000	0.0
49	0x00000000	0.0
50	0x00000000	0.0
51	0x00000000	0.0
52	0x00000000	0.0
53	0x00000000	0.0
54	0x00000000	0.0
55	0x00000000	0.0
56	0x00000000	0.0
57	0x00000000	0.0
58	0x00000000	0.0
59	0x00000000	0.0
60	0x00000000	0.0
61	0x00000000	0.0
62	0x00000000	0.0
63	0x00000000	0.0
64	0x00000000	0.0
65	0x00000000	0.0
66	0x00000000	0.0
67	0x00000000	0.0
68	0x00000000	0.0
69	0x00000000	0.0
70	0x00000000	0.0
71	0x00000000	0.0
72	0x00000000	0.0
73	0x00000000	0.0
74	0x00000000	0.0
75	0x00000000	0.0
76	0x00000000	0.0
77	0x00000000	0.0
78	0x00000000	0.0
79	0x00000000	0.0
80	0x00000000	0.0
81	0x00000000	0.0
82	0x00000000	0.0
83	0x00000000	0.0
84	0x00000000	0.0
85	0x00000000	0.0
86	0x00000000	0.0
87	0x00000000	0.0
88	0x00000000	0.0
89	0x00000000	0.0
90	0x00000000	0.0
91	0x00000000	0.0
92	0x00000000	0.0
93	0x00000000	0.0
94	0x00000000	0.0
95	0x00000000	0.0
96	0x00000000	0.0
97	0x00000000	0.0
98	0x00000000	0.0
99	0x00000000	0.0
100	0x00000000	0.0
101	0x00000000	0.0
102	0x00000000	0.0
103	0x00000000	0.0
104	0x00000000	0.0
105	0x00000000	0.0
106	0x00000000	0.0
107	0x00000000	0.0
108	0x00000000	0.0
109	0x00000000	0.0
110	0x00000000	0.0
111	0x00000000	0.0
112	0x00000000	0.0
113	0x00000000	0.0
114	0x00000000	0.0
115	0x00000000	0.0
116	0x00000000	0.0
117	0x00000000	0.0
118	0x00000000	0.0
119	0x00000000	0.0
120	0x00000000	0.0
121	0x00000000	0.0
122	0x00000000	0.0
123	0x00000000	0.0
124	0x00000000	0.0
125	0x00000000	0.0
126	0x00000000	0.0
127	0x00000000	0.0
128	0x00000000	0.0
129	0x00000000	0.0
130	0x00000000	0.0
131	0x00000000	0.0
132	0x00000000	0.0
133	0x00000000	0.0
134	0x00000000	0.0
135	0x00000000	0.0
136	0x00000000	0.0
137	0x00000000	0.0
138	0x00000000	0.0
139	0x00000000	0.0
140	0x00000000	0.0
141	0x00000000	0.0
142	0x00000000	0.0
143	0x00000000	0.0
144	0x00000000	0.0
145	0x00000000	0.0
146	0x00000000	0.0
147	0x00000000	0.0
148	0x00000000	0.0
149	0x00000000	0.0
150	0x00000000	0.0
151	0x00000000	0.0
152	0x00000000	0.0
153	0x00000000	0.0
154	0x00000000	0.0
155	0x00000000	0.0
156	0x00000000	0.0
157	0x00000000	0.0
158	0x00000000	0.0
159	0x00000000	0.0
160	0x00000000	0.0
161	0x00000000	0.0
162	0x00000000	0.0
163	0x00000000	0.0
164	0x00000000	0.0
165	0x00000000	0.0
166	0x00000000	0.0
167	0x00000000	0.0
168	0x00000000	0.0
169	0x00000000	0.0
170	0x00000000	0.0
171	0x00000000	0.0
172	0x00000000	0.0
173	0x00000000	0.0
174	0x00000000	0.0
175	0x00000000	0.0
176	0x00000000	0.0
177	0x00000000	0.0
178	0x00000000	0.0
179	0x00000000	0.0
180	0x00000000	0.0
181	0x00000000	0.0
182	0x00000000	0.0
183	0x00000000	0.0
184	0x00000000	0.0
185	0x00000000	0.0
186	0x00000000	0.0
187	0x00000000	0.0
188	0x00000000	0.0
189	0x00000000	0.0
190	0x00000000	0.0
191	0x00000000	0.0
192	0x00000000	0.0
193	0x00000000	0.0
194	0x00000000	0.0
195	0x00000000	0.0
196	0x00000000	0.0
197	0x00000000	0.0
198	0x00000000	0.0
199	0x00000000	0.0
200	0x00000000	0.0
201	0x00000000	0.0
202	0x00000000	0.0
203	0x00000000	0.0
204	0x00000000	0.0
205	0x00000000	0.0
206	0x00000000	0.0
207	0x00000000	0.0
208	0x00000000	0.0
209	0x00000000	0.0
210	0x00000000	0.0
211	0x00000000	0.0
212	0x00000000	0.0
213	0x00000000	0.0
214	0x00000000	0.0
215	0x00000000	0.0
216	0x00000000	0.0
217	0x00000000	0.0
218	0x00000000	0.0
219	0x00000000	0.0
220	0x00000000	0.0
221	0x00000000	0.0
222	0x00000000	0.0
223	0x00000000	0.0
224	0x00000000	0.0
225	0x00000000	0.0
226	0x00000000	0.0
227	0x00000000	0.0
228	0x00000000	0.0
229	0x00000000	0.0
230	0x00000000	0.0
231	0x00000000	0.0
232	0x00000000	0.0
233	0x00000000	0.0
234	0x00000000	0.0
235	0x00000000	0.0
236	0x00000000	0.0
237	0x00000000	0.0
238	0x00000000	0.0
239	0x00000000	0.0
240	0x00000000	0.0
241	0x00000000	0.0
242	0x00000000	0.0
243	0x00000000	0.0
244	0x00000000	0.0
245	0x00000000	0.0
246	0x00000000	0.0
247	0x00000000	0.0
248	0x00000000	0.0
249	0x00000000	0.0
250	0x00000000	0.0
251	0x00000000	0.0
252	0x00000000	0.0
253	0x00000000	0.0
254	0x00000000	0.0
255	0x00000000	0.0

bn1.running_var f4 [256]
0	0x3f800000	1.0
1	0x3f800000	1.0
2	0x3f800000	1.0
3	0x3f800000	1.0
4	0x3f800000	1.0
5	0x3f800000	1.0
6	0x3f800000	1.0
7	0x3f800000	1.0
8	0x3f800000	1.0
9	0x3f800000	1.0
10	0x3f800000	1.0
11	0x3f800000	1.0
12	0x3f800000	1.0
13	0x3f800000	1.0
14	0x3f800000	1.0
15	0x3f800000	1.0
16	0x3f800000	1.0
17	0x3f800000	1.0
18	0x3f800000	1.0
19	0x3f800000	1.0
20	0x3f800000	1.0
21	0x3f800000	1.0
22	0x3f800000	1.0
23	0x3f800000	1.0
24	0x3f800000	1.0
25	0x3f800000	1.0
26	0x3f800000	1.0
27	0x3f800000	1.0
28	0x3f800000	1.0
29	0x3f800000	1.0
30	0x3f800000	1.0
31	0x3f800000	1.0
32	0x3f800000	1.0
33	0x3f800000	1.0
34	0x3f800000	1.0
35	0x3f800000	1.0
36	0x3f800000	1.0
37	0x3f800000	1.0
38	0x3f800000	1.0
39	0x3f800000	1.0
40	0x3f800000	1.0
41	0x3f800000	1.0
42	0x3f800000	1.0
43	0x3f800000	1.0
44	0x3f800000	1.0
45	0x3f800000	1.0
46	0x3f800000	1.0
47	0x3f800000	1.0
48	0x3f800000	1.0
49	0x3f800000	1.0
50	0x3f800000	1.0
51	0x3f800000	1.0
52	0x3f800000	1.0
53	0x3f800000	1.0
54	0x3f800000	1.0
55	0x3f800000	1.0
56	0x3f800000	1.0
57	0x3f800000	1.0
58	0x3f800000	1.0
59	0x3f800000	1.0
60	0x3f800000	1.0
61	0x3f800000	1.0
62	0x3f800000	1.0
63	0x3f800000	1.0
64	0x3f800000	1.0
65	0x3f800000	1.0
66	0x3f800000	1.0
67	0x3f800000	1.0
68	0x3f800000	1.0
69	0x3f800000	1.0
70	0x3f800000	1.0
71	0x3f800000	1.0
72	0x3f800000	1.0
73	0x3f800000	1.0
74	0x3f800000	1.0
75	0x3f800000	1.0
76	0x3f800000	1.0
77	0x3f800000	1.0
78	0x3f800000	1.0
79	0x3f800000	1.0
80	0x3f800000	1.0
81	0x3f800000	1.0
82	0x3f800000	1.0
83	0x3f800000	1.0
84	0x3f800000	1.0
85	0x3f800000	1.0
86	0x3f800000	1.0
87	0x3f800000	1.0
88	0x3f800000	1.0
89	0x3f800000	1.0
90	0x3f800000	1.0
91	0x3f800000	1.0
92	0x3f800000	1.0
93	0x3f800000	1.0
94	0x3f800000	1.0
95	0x3f800000	1.0
96	0x3f800000	1.0
97	0x3f800000	1.0
98	0x3f800000	1.0
99	0x3f800000	1.0
100	0x3f800000	1.0
101	0x3f800000	1.0
102	0x3f800000	1.0
103	0x3f800000	1.0
104	0x3f800000	1.0
105	0x3f800000	1.0
106	0x3f800000	1.0
107	0x3f800000	1.0
108	0x3f800000	1.0
109	0x3f800000	1.0
110	0x3f800000	1.0
111	0x3f800000	1.0
112	0x3f800000	1.0
113	0x3f800000	1.0
114	0x3f800000	1.0
115	0x3f800000	1.0
116	0x3f800000	1.0
117	0x3f800000	1.0
118	0x3f800000	1.0
119	0x3f800000	1.0
120	0x3f800000	1.0
121	0x3f800000	1.0
122	0x3f800000	1.0
123	0x3f800000	1.0
124	0x3f800000	1.0
125	0x3f800000	1.0
126	0x3f800000	1.0
127	0x3f800000	1.0
128	0x3f800000	1.0
129	0x3f800000	1.0
130	0x3f800000	1.0
131	0x3f800000	1.0
132	0x3f800000	1.0
133	0x3f800000	1.0
134	0x3f800000	1.0
135	0x3f800000	1.0
136	0x3f800000	1.0
137	0x3f800000	1.0
138	0x3f800000	1.0
139	0x3f800000	1.0
140	0x3f800000	1.0
141	0x3f800000	1.0
142	0x3f800000	1.0
143	0x3f800000	1.0
144	0x3f800000	1.0
145	0x3f800000	1.0
146	0x3f800000	1.0
147	0x3f800000	1.0
148	0x3f800000	1.0
149	0x3f800000	1.0
150	0x3f800000	1.0
151	0x3f800000	1.0
152	0x3f800000	1.0
153	0x3f800000	1.0
154	0x3f800000	1.0
155	0x3f800000	1.0
156	0x3f800000	1.0
157	0x3f800000	1.0
158	0x3f800000	1.0
159	0x3f800000	1.0
160	0x3f800000	1.0
161	0x3f800000	1.0
162	0x3f800000	1.0
163	0x3f800000	1.0
164	0x3f800000	1.0
165	0x3f800000	1.0
166	0x3f800000	1.0
167	0x3f800000	1.0
168	0x3f800000	1.0
169	0x3f800000	1.0
170	0x3f800000	1.0
171	0x3f800000	1.0
172	0x3f800000	1.0
173	0x3f800000	1.0
174	0x3f800000	1.0
175	0x3f800000	1.0
176	0x3f800000	1.0
177	0x3f800000	1.0
178	0x3f800000	1.0
179	0x3f800000	1.0
180	0x3f800000	1.0
181	0x3f800000	1.0
182	0x3f800000	1.0
183	0x3f800000	1.0
184	0x3f800000	1.0
185	0x3f800000	1.0
186	0x3f800000	1.0
187	0x3f800000	1.0
188	0x3f800000	1.0
189	0x3f800000	1.0
190	0x3f800000	1.0
191	0x3f800000	1.0
192	0x3f800000	1.0
193	0x3f800000	1.0
194	0x3f800000	1.0
195	0x3f800000	1.0
196	0x3f800000	1.0
197	0x3f800000	1.0
198	0x3f800000	1.0
199	0x3f800000	1.0
200	0x3f800000	1.0
201	0x3f800000	1.0
202	0x3f800000	1.0
203	0x3f800000	1.0
204	0x3f800000	1.0
205	0x3f800000	1.0
206	0x3f800000	1.0
207	0x3f800000	1.0
208	0x3f800000	1.0
209	0x3f800000	1.0
210	0x3f800000	1.0
211	0x3f800000	1.0
212	0x3f800000	1.0
213	0x3f800000	1.0
214	0x3f800000	1.0
215	0x3f800000	1.0
216	0x3f800000	1.0
217	0x3f800000	1.0
218	0x3f800000	1.0
219	0x3f800000	1.0
220	0x3f800000	1.0
221	0x3f800000	1.0
222	0x3f800000	1.0
223	0x3f800000	1.0
224	0x3f800000	1.0
225	0x3f800000	1.0
226	0x3f800000	1.0
227	0x3f800000	1.0
228	0x3f800000	1.0
229	0x3f800000	1.0
230	0x3f800000	1.0
231	0x3f800000	1.0
232	0x3f800000	1.0
233	0x3f800000	1.0
234	0x3f800000	1.0
235	0x3f800000	1.0
236	0x3f800000	1.0
237	0x3f800000	1.0
238	0x3f800000	1.0
239	0x3f800000	1.0
240	0x3f800000	1.0
241	0x3f800000	1.0
242	0x3f800000	1.0
243	0x3f800000	1.0
244	0x3f800000	1.0
245	0x3f800000	1.0
246	0x3f800000	1.0
247	0x3f800000	1.0
248	0x3f800000	1.0
249	0x3f800000	1.0
250	0x3f800000	1.0
251	0x3f800000	1.0
252	0x3f800000	1.0
253	0x3f800000	1.0
254	0x3f800000	1.0
255	0x3f800000	1.0

fc2.weight f4 [256, 260]
0	0x002919ca	3.774507e-39
1	0x0060c126	8.885496e-39
2	0x812ff140	-3.2315512e-38
3	0x8027d451	-3.657749e-39
4	0x004f4075	7.278127e-39
5	0x80ae34f8	-1.5998378e-38
6	0x001de7d8	2.746399e-39
7	0x8076dbf3	-1.0915491e-38
8	0x0082a0e0	1.1996326e-38
9	0x806990f1	-9.694722e-39
10	0x00382f45	5.159745e-39
11	0x801399c4	-1.800035e-39
12	0x00e18f7c	2.0714459e-38
13	0x809b465b	-1.425974e-38
14	0x8093ba7d	-1.3566717e-38
15	0x8012e357	-1.734593e-39
16	0x80501c89	-7.357076e-39
17	0x009fc802	1.4673593e-38
18	0x80ac4f38	-1.5824124e-38
19	0x8050379d	-7.36679e-39
20	0x002ec1ee	4.294002e-39
21	0x00029bdb	2.39581e-40
22	0x0043e9e0	6.236877e-39
23	0x80597505	-8.215338e-39
24	0x004fb066	7.318284e-39
25	0x800c0d00	-1.10669e-39
26	0x8089b71d	-1.2647152e-38
27	0x806a4a79	-9.761278e-39
28	0x80f55456	-2.252995e-38
29	0x0078d0ad	1.1095118e-38
30	0x006edfe8	1.0182227e-38
31	0x002ba64e	4.008585e-39
32	0x000bff17	1.1017e-39
33	0x802574b9	-3.439786e-39
34	0x004f4286	7.278868e-39
35	0x80b353c5	-1.6468605e-38
36	0x00bc643c	1.730103e-38
37	0x0044cfa0	6.319296e-39
38	0x80dc05ea	-2.0205931e-38
39	0x80ac906e	-1.5847517e-38
40	0x80840e99	-1.2127522e-38
41	0x80750961	-1.0748118e-38
42	0x00903c4a	1.3245939e-38
43	0x80d67365	-1.9694192e-38
44	0x80c9e4aa	-1.8540964e-38
45	0x003b5d78	5.451825e-39
46	0x802cdf94	-4.120967e-39
47	0x80db301b	-2.012923e-38
48	0x8086680c	-1.2343281e-38
49	0x80b3ecf7	-1.6523561e-38
50	0x80e9bf01	-2.146619e-38
51	0x001872fc	2.2453e-39
52	0x80bbf3ee	-1.7260743e-38
53	0x807ba4e7	-1.1354922e-38
54	0x008cd44a	1.2933124e-38
55	0x80039767	-3.2982e-40
56	0x0040d710	5.954622e-39
57	0x00168c93	2.07081e-39
58	0x00d1c377	1.9263738e-38
59	0x809017dd	-1.3232872e-38
60	0x80d9d474	-2.0004516e-38
61	0x80ad9005	-1.5939205e-38
62	0x809894d9	-1.4012392e-38
63	0x00849a93	1.2177736e-38
64	0x804177e7	-6.01232e-39
65	0x00c34fe8	1.7936587e-38
66	0x805fe11e	-8.805129e-39
67	0x00e01e6a	2.0582062e-38
68	0x80ee2d9a	-2.1873207e-38
69	0x00eba669	2.1641038e-38
70	0x805269e8	-7.568503e-39
71	0x00441b2a	6.254558e-39
72	0x0009989a	8.81263e-40
73	0x00979d8b	1.3923676e-38
74	0x00c18af9	1.7774105e-38
75	0x80871afa	-1.240747e-38
76	0x00507429	7.38851e-39
77	0x00d0a640	1.9161422e-38
78	0x800147f8	-1.17653e-40
79	0x00c435a4	1.8019e-38
80	0x815a7346	-4.012298e-38
81	0x80b9d9f0	-1.7067748e-38
82	0x807e5d3c	-1.1604719e-38
83	0x804ee587	-7.245508e-39
84	0x013d7318	3.4796393e-38
85	0x003ac190	5.395896e-39
86	0x803ee514	-5.775979e-39
87	0x8016ddb4	-2.099913e-39
88	0x00c678a1	1.8226702e-38
89	0x80e96f72	-2.143765e-38
90	0x00e6a88d	2.1182629e-38
91	0x00018e1e	1.42818e-40
92	0x00823580	1.1957807e-38
93	0x00b684ea	1.6761741e-38
94	0x8028c434	-3.743804e-39
95	0x007d6d22	1.1518586e-38
96	0x0041b93a	6.035754e-39
97	0x8032f982	-4.681281e-39
98	0x80fb892c	-2.3099918e-38
99	0x00623779	9.019778e-39
100	0x005ace24	8.339144e-39
101	0x80c52016	-1.8103103e-38
102	0x00d69065	1.9704595e-38
103	0x808d64b2	-1.2984928e-38
104	0x80282f1f	-3.690324e-39
105	0x00024107	2.06998e-40
106	0x80a04a66	-1.4720369e-38
107	0x802ce830	-4.124055e-39
108	0x80272c5c	-3.597497e-39
109	0x80d7753a	-1.9786685e-38
110	0x804ef4ce	-7.250988e-39
111	0x80ce9e1f	-1.8974835e-38
112	0x8147f654	-3.672726e-38
113	0x808eb778	-1.3106457e-38
114	0x00e17da2	2.0708055e-38
115	0x809dcd36	-1.4491789e-38
116	0x005c0c7a	8.453341e-39
117	0x8034312c	-4.793085e-39
118	0x00143464	1.855504e-39
119	0x0014ca8c	1.90937e-39
120	0x8043d2f8	-6.22866e-39
121	0x801aac69	-2.449572e-39
122	0x80b1464d	-1.6280102e-38
123	0x805f44c3	-8.749039e-39
124	0x00345e84	4.809352e-39
125	0x00d73946	1.9765178e-38
126	0x002dfed6	4.224015e-39
127	0x00847824	1.2165384e-38
128	0x00a00f94	1.4699268e-38
129	0x01164bae	2.7604946e-38
130	0x008012b9	1.176166e-38
131	0x80070520	-6.44687e-40
132	0x80625e20	-9.033644e-39
133	0x80a80ed6	-1.5433685e-38
134	0x003e3ece	5.716331e-39
135	0x80de2d18	-2.0403657e-38
136	0x80f51c9c	-2.250996e-38
137	0x80d7b6dd	-1.981023e-38
138	0x80858819	-1.2262944e-38
139	0x003fd46d	5.86184e-39
140	0x006b6622	9.863036e-39
141	0x0036c5ff	5.030144e-39
142	0x0098f63e	1.404733e-38
143	0x8072e812	-1.0552498e-38
144	0x805db06f	-8.603994e-39
145	0x80aa09f4	-1.5615605e-38
146	0x80cac89c	-1.8622735e-38
147	0x000b7545	1.052259e-39
148	0x80a055ed	-1.4724504e-38
149	0x00c5f0c0	1.8177958e-38
150	0x800d5e39	-1.227662e-39
151	0x002eb0f6	4.287914e-39
152	0x80841ac3	-1.2131886e-38
153	0x8091ba86	-1.3383059e-38
154	0x80e637f4	-2.1142236e-38
155	0x801473be	-1.87823e-39
156	0x007e1c45	1.1581414e-38
157	0x80e34191	-2.0870178e-38
158	0x8095039b	-1.3684782e-38
159	0x80954233	-1.3707237e-38
160	0x80e22392	-2.0767582e-38
161	0x80253540	-3.417016e-39
162	0x80384e37	-5.170846e-39
163	0x8010efb2	-1.555354e-39
164	0x809f8bfc	-1.4652061e-38
165	0x80d1a09d	-1.9251236e-38
166	0x80104005	-1.492334e-39
167	0x0005e434	5.41041e-40
168	0x8069434d	-9.66687e-39
169	0x80244c76	-3.333507e-39
170	0x0058d152	8.156614e-39
171	0x8036e075	-5.039637e-39
172	0x80776603	-1.0965019e-38
173	0x8004fe16	-4.58491e-40
174	0x009cc2cc	1.4396217e-38
175	0x803e1bf3	-5.703827e-39
176	0x0133f7f0	3.3054994e-38
177	0x80e20139	-2.0755261e-38
178	0x002d868c	4.180864e-39
179	0x00b347d8	1.6464326e-38
180	0x000915b2	8.34302e-40
181	0x00e59bcf	2.1086222e-38
182	0x804ebc64	-7.23075e-39
183	0x0005d06e	5.33948e-40
184	0x0063707d	9.132067e-39
185	0x80df1153	-2.048553e-38
186	0x009c1ca6	1.4336615e-38
187	0x0041a6dd	6.029167e-39
188	0x0020f39b	3.026125e-39
189	0x008389f9	1.2079945e-38
190	0x80c1f4ad	-1.7812024e-38
191	0x80bbd8d7	-1.7251025e-38
192	0x00021678	1.91731e-40
193	0x808a56d5	-1.2704448e-38
194	0x001b0837	2.482505e-39
195	0x00e8add6	2.1368196e-38
196	0x80457e88	-6.38204e-39
197	0x00578010	8.035628e-39
198	0x004752be	6.550003e-39
199	0x805f004b	-8.724477e-39
200	0x817a845e	-4.6012717e-38
201	0x80a58b26	-1.5202774e-38
202	0x009495d9	1.3645409e-38
203	0x00e2255f	2.0768228e-38
204	0x00daf401	2.010767e-38
205	0x80c09c0e	-1.7688397e-38
206	0x009ff69f	1.4690315e-38
207	0x80249ba2	-3.361908e-39
208	0x00d0a30f	1.9160278e-38
209	0x00878b63	1.2447795e-38
210	0x00a3261c	1.4982857e-38
211	0x0039a5ac	5.294055e-39
212	0x00637c34	9.13627e-39
213	0x8060b97f	-8.882751e-39
214	0x00109106	1.521393e-39
215	0x807f716a	-1.1703793e-38
216	0x80894848	-1.2607393e-38
217	0x80610d29	-8.912764e-39
218	0x00b7625d	1.6841182e-38
219	0x00189bf9	2.260004e-39
220	0x80834ab7	-1.2057253e-38
221	0x8003a78a	-3.35608e-40
222	0x00aa22be	1.5624497e-38
223	0x8016df49	-2.10048e-39
224	0x00414b20	5.996257e-39
225	0x803c92eb	-5.562834e-39
226	0x0045e0ec	6.417336e-39
227	0x0044f644	6.333157e-39
228	0x80b3bc00	-1.6505996e-38
229	0x807d1b0f	-1.1489144e-38
230	0x00c5cfc0	1.816612e-38
231	0x00a02f06	1.4710548e-38
232	0x80904c70	-1.3251732e-38
233	0x00076c32	6.81662e-40
234	0x008d2757	1.2962917e-38
235	0x015a0532	4.0044004e-38
236	0x809ab61e	-1.4207998e-38
237	0x803e9657	-5.747733e-39
238	0x0079248e	1.1125208e-38
239	0x806dc7e2	-1.0081774e-38
240	0x008c861a	1.2905076e-38
241	0x000cab33	1.16344e-39
242	0x80528025	-7.57648e-39
243	0x80ab4218	-1.572758e-38
244	0x803854c9	-5.173203e-39
245	0x005ba8a6	8.41753e-39
246	0x803a8dc4	-5.377315e-39
247	0x00b837e0	1.6917775e-38
248	0x80a3b422	-1.5033805e-38
249	0x00422275	6.073504e-39
250	0x00aaea82	1.569616e-38
251	0x00597491	8.215175e-39
252	0x80b60336	-1.6715212e-38
253	0x00516580	7.475087e-39
254	0x007f6a2c	1.1701195e-38
255	0x00231ecc	3.22529e-39
