checkpoint_actor.pth (torch_old, 173893 bytes, 10 tensors)

fc1.weight f4 [256, 33]
0	0x3d882405	0.06647495
1	0x3d45c61f	0.048284646
2	0x3c40dfb4	0.011772085
3	0x3c7297bc	0.014806684
4	0xbd429b17	-0.047511186
5	0xbc1fdc65	-0.009757136
6	0x3d12f3c4	0.035877004
7	0x3d633957	0.055474605
8	0x3d1ca9fd	0.03824805
9	0xbd659912	-0.056054182
10	0x3d3b40f4	0.04571624
11	0xbc5c4106	-0.013443237
12	0x3d2eec8e	0.042706065
13	0x3b65001b	0.003494269
14	0x3cc1ec1a	0.023672152
15	0x3c9d767c	0.019221537
16	0xbc216830	-0.0098515
17	0xbd563ffa	-0.052307107
18	0xbd8472d9	-0.06467218
19	0xbc4b1484	-0.012395028
20	0x3c4d83b1	0.012543605
21	0x3c8d6788	0.017261282
22	0x3ce3e2c0	0.027818084
23	0x3ccfc4ad	0.025362337
24	0x3cc32e88	0.023825899
25	0x3cc57822	0.024105135
26	0x3d7bb61e	0.061452977
27	0x3c83e0ec	0.016098462
28	0x3d56af26	0.05241313
29	0xbd2002da	-0.03906522
30	0x3c92d958	0.017925903
31	0xbd18b214	-0.037279204
32	0x3ca9274f	0.020648627
33	0x3d0a63cc	0.03378658
34	0xbcf63f50	-0.030059487
35	0xbca8cddf	-0.02060598
36	0xbd215a59	-0.039392803
37	0x3c826005	0.015914926
38	0x3d240fa5	0.040053982
39	0xbd3f565e	-0.046713226
40	0x3bd81c6f	0.0065951864
41	0x3c5f5eb4	0.013633419
42	0xbdac9bd0	-0.084281564
43	0xbd25cc28	-0.0404779
44	0x3c90b7ad	0.017665708
45	0xbd443da2	-0.04791034
46	0x3d6a89d1	0.05726034
47	0x3c3dfedf	0.011596411
48	0xbd172b7a	-0.036906697
49	0xbb5355e3	-0.0032247237
50	0xbc73748f	-0.014859333
51	0xbc0688f9	-0.008211368
52	0x3c9be7db	0.019031456
53	0xbcb2c8f3	-0.021824336
54	0xbc917ceb	-0.01775976
55	0xbb2d720e	-0.0026465687
56	0xbd74c9b8	-0.059762686
57	0xbc145eff	-0.009055852
58	0x3cc4c3ae	0.024019089
59	0x3c7fb450	0.015606955
60	0xbd431a5c	-0.04763256
61	0x3cc6c3ee	0.024263348
62	0x3cb95f60	0.022628486
63	0x3d441aa4	0.04787697
64	0xbc7b8c58	-0.015353285
65	0x3c282cd4	0.010264594
66	0xbc529086	-0.01285184
67	0x3cfe2284	0.031022318
68	0xbcf3fd9d	-0.029784018
69	0xbd6d2652	-0.057897873
70	0xbd2134a5	-0.039356846
71	0x39ca63a7	0.0003860269
72	0x3cd9f500	0.026606083
73	0x3d372729	0.04471508
74	0xbd3fbe14	-0.046812132
75	0xbcb727d4	-0.022357859
76	0xbdc4b2ff	-0.09604453
77	0x3c88c443	0.016695147
78	0x3c6e37e3	0.014539692
79	0x3d5e2d41	0.054242376
80	0xbc838314	-0.016053714
81	0x3cbd8448	0.023134366
82	0xbc8f7b65	-0.017514894
83	0x3d02b7e1	0.03191364
84	0xbb144522	-0.0022624214
85	0x3d04faf2	0.032465883
86	0x3bf69dcf	0.0075261365
87	0xbc38c5ce	-0.011277629
88	0xbadbf361	-0.0016780907
89	0xbca045f9	-0.019564616
90	0x3b1d3598	0.0023988243
91	0x3c2bbaee	0.010481579
92	0x3c12fa53	0.008970815
93	0xbd1dc21a	-0.038515188
94	0x3d663ad7	0.056208458
95	0x3c433c50	0.011916235
96	0xbd438164	-0.04773082
97	0xbd6ec2f8	-0.058291405
98	0xbc51aeaa	-0.012797991
99	0x3c2d6be4	0.010584805
100	0xbd19da56	-0.037561737
101	0xbd413a61	-0.047174815
102	0x3b94c1a3	0.004539685
103	0xbd264995	-0.040597517
104	0xbd4c4621	-0.049871568
105	0xbd5c8afc	-0.053843483
106	0x3d6ed96b	0.058312815
107	0x3d6e53c3	0.05818535
108	0x3d333bfd	0.04375838
109	0x3d970d72	0.07375611
110	0xbcf896f3	-0.030345416
111	0x3d4de97b	0.050271492
112	0xbd977618	-0.073955715
113	0xbbb4c605	-0.00551677
114	0xbd28774f	-0.041129407
115	0xbd4dfa91	-0.050287787
116	0xbc1c32dd	-0.009533611
117	0xbcc8125c	-0.024422817
118	0x3d59f45d	0.05321156
119	0x3b81cf52	0.003961482
120	0xbd369542	-0.044575937
121	0xbc1e284a	-0.00965316
122	0x3d5a6210	0.053316176
123	0x3cca74e5	0.024713943
124	0xbd3e57a7	-0.04647031
125	0x3d2e061f	0.042486306
126	0xbd26e1cc	-0.04074268
127	0x3b5b31ad	0.0033446357
128	0xbd1b69a2	-0.037942536
129	0x3c06e378	0.008232944
130	0x3d5e79e2	0.054315455
131	0xbccfb12b	-0.025353035
132	0x3d033825	0.032035965
133	0xbcfd70e2	-0.030937616
134	0xbcb4a71c	-0.02205234
135	0xbc5a87c9	-0.013338038
136	0xbd3d6c16	-0.046245657
137	0x3d282043	0.041046392
138	0x3c9453f7	0.018106444
139	0xbbcd0adf	-0.0062573995
140	0xbd597a3e	-0.053095095
141	0xbd675cb5	-0.056484897
142	0xbda44c4b	-0.08022364
143	0xbc8ccf91	-0.01718882
144	0x3d149447	0.03627422
145	0x3c91659f	0.017748652
146	0xbcbc7e62	-0.023009483
147	0x3a94aa40	0.0011342242
148	0xbd0eec83	-0.034893524
149	0xbc064c02	-0.008196833
150	0xbc4ba637	-0.012429765
151	0x3b0c5ec9	0.00214188
152	0xbd2cf468	-0.04222527
153	0x3c1edada	0.009695733
154	0xbccebd4f	-0.025236754
155	0xbce39a63	-0.027783578
156	0x3c8c1084	0.017097719
157	0x3c3f5664	0.011678312
158	0x3cae066b	0.021243295
159	0xbd391792	-0.045188494
160	0x3d799b96	0.060939394
161	0xbc924098	-0.017853066
162	0x3c93f4f0	0.018061131
163	0x3d053b16	0.032527052
164	0x3aa08ffd	0.0012249943
165	0x3d32cf3a	0.043654658
166	0x3c9d39ce	0.019192602
167	0x3b5484e3	0.003242784
168	0xbd5d72dd	-0.05406462
169	0xbcdd5e63	-0.027022546
170	0x3d65c8ac	0.05609958
171	0xbda0a73e	-0.07844399
172	0x3c969df1	0.01838586
173	0x3b220302	0.002472103
174	0xbd6979c4	-0.05700089
175	0x3c01d591	0.007924453
176	0x3cffdc9d	0.031233126
177	0x3da886f6	0.08228867
178	0x3d9a6aa7	0.075398736
179	0x3d3bf5c4	0.045888677
180	0x3d64b66b	0.05583803
181	0xbd953ed7	-0.072873764
182	0xbc445364	-0.0119827725
183	0x3d0ab7d3	0.033866715
184	0x3d0d43e6	0.03448858
185	0xbd198fe7	-0.03749075
186	0x3d4512e1	0.048113707
187	0x3cf23568	0.029566482
188	0xbd074900	-0.033028603
189	0x3d2a2f9c	0.04154931
190	0x3d2a07e4	0.04151143
191	0xbd448872	-0.047981687
192	0xba83e195	-0.0010061736
193	0x3bdc21db	0.006717903
194	0x3cb7a38c	0.022416852
195	0xbd623b68	-0.055232435
196	0x3d583ade	0.052790515
197	0x3d52a5d5	0.05142768
198	0xbd350f29	-0.04420391
199	0xbcd23c2d	-0.02566346
200	0x3cbffb6f	0.023435323
201	0xbcafb82d	-0.021450127
202	0xbc664e22	-0.014056714
203	0x3d01aaf6	0.03165718
204	0x3caca294	0.021073617
205	0xbd155b07	-0.036463764
206	0xbd530044	-0.051513925
207	0xbd8f4ded	-0.06997285
208	0x3c656e71	0.014003382
209	0x3d9324ac	0.07184729
210	0x3d4ed437	0.050495353
211	0x3cd584e1	0.026064338
212	0x3d0415e4	0.03224744
213	0x3d0eaef3	0.034834813
214	0x3cfd4940	0.030918717
215	0x3d9caef9	0.07650561
216	0x3ca3d146	0.01999725
217	0xbc1ddc42	-0.009635033
218	0xbcb6c785	-0.022311935
219	0x3c51d8e9	0.012808063
220	0x3d5186fe	0.05115413
221	0xbd0b58d6	-0.034020267
222	0x3ca60546	0.020266186
223	0x3aaab8dd	0.0013025064
224	0x3a2588cf	0.00063146366
225	0x3d368f3e	0.0445702
226	0x3d2f4cac	0.04279773
227	0x3d63ef82	0.055648334
228	0x3d1358c2	0.035973318
229	0xbd0bafd0	-0.034103215
230	0x3cd9049f	0.026491461
231	0x3daa9b39	0.083303876
232	0xbd180889	-0.037117515
233	0x3b9fbfe0	0.004875168
234	0x3d886559	0.066599555
235	0x3d699003	0.057022106
236	0x3dbcf511	0.0922643
237	0x3cf705ec	0.030154191
238	0x3d29eeba	0.041487433
239	0xbd1e4d8c	-0.038648173
240	0xbccb20a5	-0.02479584
241	0xbcd14ef6	-0.025550347
242	0x3c802083	0.015640503
243	0xbd6c4b8c	-0.057689235
244	0x3d89f256	0.06735675
245	0xbc958642	-0.018252496
246	0xba01454c	-0.00049312855
247	0xbcb03522	-0.02150971
248	0x3d1b85b5	0.03796931
249	0x3d388f26	0.045058392
250	0xbd65e84a	-0.05612973
251	0x3d88e5ef	0.06684481
252	0x3d3c166a	0.045919813
253	0xbc13403a	-0.008987481
254	0x3b52c117	0.0032158548
255	0x3d6b5eb9	0.05746338

fc1.bias f4 [256]
0	0x3db4fd44	0.08837369
1	0x3e2152d8	0.15754259
2	0xbd3c5150	-0.045975983
3	0x3e13a692	0.1441901
4	0xbb68fdf7	-0.0035551765
5	0xbe24bc92	-0.16087559
6	0xbe2627d9	-0.16226138
7	0xbda5a70f	-0.080885045
8	0xba8b4aeb	-0.0010627186
9	0x3e1093b2	0.14118841
10	0xbd984892	-0.07435717
11	0xbcdd03f8	-0.026979432
12	0x3df3b848	0.11900383
13	0xbd2fc8dc	-0.042916164
14	0x3d9a751a	0.075418666
15	0xbc71d980	-0.014761329
16	0xbd8af012	-0.06784071
17	0xbde6fce8	-0.11278707
18	0x3e2ef86e	0.17086956
19	0xbdbf7c66	-0.09349899
20	0x3c92e9e8	0.0179338
21	0x3d779c94	0.06045206
22	0x3d044404	0.032291427
23	0xbc666ff0	-0.014064774
24	0xbd09ce78	-0.03364417
25	0xbd960ca4	-0.0732663
26	0x3d7667b0	0.060157478
27	0xbd4fedf2	-0.05076403
28	0x3d84e09e	0.06488155
29	0x3db7a05c	0.08966133
30	0x3d7cc4d8	0.061711162
31	0xbda7cb0e	-0.081930265
32	0xbdf52364	-0.11969641
33	0xbd42c51c	-0.04755126
34	0x3d63fed4	0.055662945
35	0x3c99af08	0.01876022
36	0x3e2e3f64	0.17016369
37	0x3df0d400	0.11759186
38	0xbda6cb74	-0.08144274
39	0x3e000f8a	0.12505928
40	0xbdcb3e63	-0.09924009
41	0xbd70ac12	-0.05875785
42	0x3e041f64	0.129026
43	0xbe0307a1	-0.12795879
44	0xbd462914	-0.04837902
45	0xbe128080	-0.14306831
46	0x3da57178	0.08078283
47	0x3dff7930	0.124742866
48	0x3e1cb3c6	0.15302953
49	0xbd788b62	-0.0606798
50	0xbe03cece	-0.12871858
51	0x3dbc2140	0.091860294
52	0xbde68f70	-0.11257827
53	0xbd6d9b3e	-0.05800938
54	0xbe12a8e2	-0.14322236
55	0x3e0b0c8c	0.13579005
56	0xbc8f4b50	-0.017491966
57	0x3cbdb110	0.023155719
58	0x3c2695a1	0.01016751
59	0x3ccbec68	0.024893
60	0xbd9c31f4	-0.07626715
61	0x3e2ea89c	0.17056507
62	0xbe21a49b	-0.15785448
63	0xbcba97e0	-0.022777498
64	0xbdcf96e0	-0.10136199
65	0xbdf2a4fe	-0.11847876
66	0x3dbf89d8	0.093524635
67	0x3e02d2b8	0.12775695
68	0x3da8b418	0.08237475
69	0x3d558f00	0.05213833
70	0x3dedcdc4	0.11611512
71	0x3dbf2030	0.09332311
72	0xbd4f6ef4	-0.050642923
73	0xbd96d478	-0.07364744
74	0x3d5344bc	0.051579222
75	0x3ddfc48c	0.1092616
76	0x3dee00bc	0.11621234
77	0x3a3e6a04	0.00072637224
78	0x3e32326c	0.17402047
79	0xbdffec61	-0.124962576
80	0x3d93ea7e	0.0722246
81	0x3e18aba4	0.14909226
82	0x3c321d2a	0.010871211
83	0x3dd753d0	0.10514033
84	0x3e1ca534	0.15297395
85	0xbe0a0bf0	-0.13481116
86	0x3de7c344	0.11316541
87	0x3da543c4	0.08069566
88	0x3dbb58f8	0.09147829
89	0x3db2efc4	0.08737138
90	0x3dd54218	0.10412997
91	0x3d63dbf0	0.05562967
92	0x3dc5da88	0.09660822
93	0xbe21ac1e	-0.15788314
94	0xbe31964d	-0.17342491
95	0x3dbd6f80	0.092497826
96	0x3e3181d4	0.17334682
97	0xbd54c98e	-0.05195003
98	0x3e090a4a	0.13382831
99	0xbc9b4ec8	-0.018958464
100	0x3db2d7f4	0.08732596
101	0xbc67e300	-0.014153242
102	0x3dad5f8c	0.0846549
103	0xbd9acc66	-0.07558517
104	0xbe128c75	-0.14311393
105	0x3dbe65d4	0.09296766
106	0xbd959ecc	-0.07305679
107	0x3e04fd78	0.12987316
108	0x3cc0ae80	0.023520708
109	0xbd91526b	-0.07095798
110	0x3e2b8706	0.16750726
111	0x3e2a474e	0.16628763
112	0xbdb8d531	-0.09025038
113	0x3d9e8dd0	0.07741892
114	0x3d4c89d8	0.049936146
115	0xbddaf62c	-0.10691485
116	0x3cb51628	0.022105291
117	0xbe1c2998	-0.15250242
118	0x3c59b310	0.013287321
119	0xbe1a91ca	-0.15094677
120	0x3e186f16	0.14886126
121	0x3db2f298	0.08737677
122	0x3e0d349a	0.13789597
123	0x3d0a40a4	0.033753052
124	0xbd97c860	-0.074112654
125	0x3db626b0	0.08894098
126	0x3d9d03bc	0.07666728
127	0x3dc39c94	0.09551349
128	0xbcda72f0	-0.026666135
129	0x3e318234	0.17334825
130	0xbde36615	-0.11103455
131	0xbe1efca7	-0.15526067
132	0x3d3eb380	0.046557903
133	0x3e2113ba	0.15730181
134	0x3cdbfa20	0.026852667
135	0xbd4cbbb8	-0.04998371
136	0xbe18098e	-0.14847395
137	0x3def6134	0.11688462
138	0xbe2f4ee7	-0.17119943
139	0xbd92f694	-0.07175937
140	0x3dc5de3c	0.096615285
141	0xbdc99d7e	-0.098444924
142	0xbde959e2	-0.11394097
143	0xbdb3c049	-0.0877691
144	0x3daa4548	0.083139956
145	0xbd97fa4d	-0.07420788
146	0xbd227284	-0.03965999
147	0xbd2b79b4	-0.041864112
148	0x3dc185e0	0.09449363
149	0x3e1c944a	0.15290943
150	0x3c31e4b0	0.010857746
151	0x3a478008	0.00076103257
152	0xbc91e3b8	-0.01780878
153	0x3da9d210	0.08292019
154	0x3e009e96	0.12560496
155	0x3d28e990	0.041238368
156	0x3ddc4a68	0.10756379
157	0xbd602174	-0.054719403
158	0xbc0c8f30	-0.00857906
159	0xbe1471fb	-0.14496605
160	0x3d9b0d44	0.075708896
161	0xbdb77fc8	-0.08959919
162	0xbcdaece0	-0.026724279
163	0xbe2e666f	-0.17031263
164	0x3c73e6d0	0.014886573
165	0x3d6073ec	0.05479805
166	0x3dd79790	0.10526955
167	0xbd1cec14	-0.03831108
168	0x3c099bc0	0.00839895
169	0x3e27968c	0.16366023
170	0x3b102f85	0.002200098
171	0x3e005abe	0.12534615
172	0x3e2ea042	0.17053321
173	0x3e17ae70	0.14812636
174	0x3da1bab8	0.07896942
175	0x3de3b508	0.11118513
176	0x3e22b7f2	0.15890482
177	0xbc8c10c8	-0.017097846
178	0x3e0f0532	0.13966826
179	0xbd92ac1b	-0.07161733
180	0xbd61dd70	-0.05514282
181	0x3da01758	0.078169525
182	0xbdd6ceea	-0.104886845
183	0xbd88a3d1	-0.066718705
184	0x3c1956c0	0.009359062
185	0x3c6b04a0	0.014344364
186	0x3c106190	0.008812323
187	0xbcbf0ee0	-0.023322523
188	0x3d62f958	0.055413574
189	0x3e2c38ba	0.16818514
190	0xbd6ee740	-0.058326006
191	0x3dc42160	0.09576678
192	0x3d2ea048	0.042633325
193	0x3de18860	0.110123396
194	0x3e1166a6	0.14199314
195	0xbc8861b8	-0.016648158
196	0xbd1433ec	-0.03618233
197	0xbd8c9c71	-0.06865776
198	0xbd4593c8	-0.04823664
199	0xbd9785ba	-0.07398553
200	0xbd301120	-0.04298508
201	0x3dd05e04	0.10174182
202	0x3d560460	0.052250266
203	0xbda832a7	-0.08212786
204	0x3dc9a3f4	0.09845725
205	0x3c7fc510	0.015610948
206	0x3be1c200	0.0068895817
207	0x3d89a8d6	0.06721656
208	0xbdc7b3b1	-0.0975107
209	0xbc96e490	-0.018419534
210	0x3e07f776	0.13277993
211	0x3de6fa08	0.112781584
212	0x3dc8f730	0.09812772
213	0xbcc81b20	-0.024426997
214	0x3c8fde90	0.01756218
215	0x3de76c10	0.11299908
216	0x3cf84b40	0.03030932
217	0x3dc452c0	0.09586096
218	0x3db4a390	0.088202596
219	0x3d9c5c44	0.07634786
220	0x3da7b728	0.08189231
221	0xbdeed7c7	-0.1166225
222	0xbe1cab6c	-0.15299767
223	0xbe30a1e3	-0.17249255
224	0x3e0bb13e	0.13641831
225	0xbdc64ebf	-0.096829884
226	0xbe0c27dc	-0.1368708
227	0x3cb65158	0.022255585
228	0xbd094fe4	-0.033523455
229	0x3d6260c4	0.055268064
230	0xbd3a355c	-0.045461044
231	0x3e0a1cbc	0.13487524
232	0xbe29020a	-0.16504684
233	0xbe2faa5a	-0.17154828
234	0x3e1988b8	0.1499356
235	0xbd9ab439	-0.07553906
236	0x3d2ebbd8	0.04265961
237	0x3d81ebfa	0.06343837
238	0x3cdfd138	0.027321443
239	0xbde130b0	-0.109956145
240	0x3c9aa388	0.018876806
241	0xbde96a20	-0.11397195
242	0x3e165e04	0.14684302
243	0x3cdc2880	0.02687478
244	0x3e00c1c0	0.1257391
245	0x3dfbd858	0.12297124
246	0x3d97c18a	0.074099615
247	0x3d7bd798	0.061484903
248	0x3dc90d8c	0.09817037
249	0xbde34986	-0.11098008
250	0x3e06817a	0.13135329
251	0xbd1946dc	-0.037421092
252	0x3e09c39c	0.13453525
253	0xbc3ef320	-0.011654645
254	0x3da5358c	0.08066854
255	0x3e03a14c	0.12854499

bn1.weight f4 [256]
0	0x3f259d2e	0.6469296
1	0x3edc5d3a	0.43039876
2	0x3f3a800c	0.72851634
3	0x3d78dbe5	0.060756583
4	0x3efa1249	0.48842075
5	0x3edd77ac	0.43255365
6	0x3e08b572	0.13350466
7	0x3f0b7257	0.54471344
8	0x3f2d0e07	0.6759953
9	0x3d8f5b65	0.06999854
10	0x3f7570d8	0.9587531
11	0x3f571406	0.8401493
12	0x3f87cc5d	1.0609242
13	0x3eb2930a	0.34877807
14	0x3e493286	0.1964818
15	0x3f610e80	0.8791275
16	0x3f82ee7c	1.022903
17	0x3e8295f0	0.25505018
18	0x3e6380f2	0.22217157
19	0x3f06d1ce	0.52663887
20	0x3f7c6e64	0.9860594
21	0x3efa558e	0.48893398
22	0x3b95d66e	0.004572681
23	0x3ea7a59b	0.32743534
24	0x3e8cece5	0.27524486
25	0x3f684fc6	0.90746725
26	0x3e427811	0.18991114
27	0x3f6b847b	0.91999024
28	0x3f351ed6	0.70750177
29	0x3efd875c	0.49517334
30	0x3edb5023	0.42834577
31	0x3f54a4bd	0.8306387
32	0x3e912d6f	0.28354976
33	0x3eb4a9df	0.3528585
34	0x3f779fff	0.9672851
35	0x3eb53a16	0.3539588
36	0x3f1dafa7	0.6159615
37	0x3f740a67	0.9532837
38	0x3e2fd762	0.17172006
39	0x3f1c0e42	0.60959256
40	0x3f123707	0.57115215
41	0x3e93b3ff	0.28848264
42	0x3f740e32	0.9533416
43	0x3f686060	0.90772057
44	0x3f004f0b	0.5012061
45	0x3f00fd5a	0.50386584
46	0x3f5dfb6f	0.8671178
47	0x3ec4c09a	0.38428193
48	0x3f4febe6	0.8121933
49	0x3e62992b	0.22128741
50	0x3e1c7e6d	0.15282603
51	0x3f61da9d	0.882242
52	0x3f6705a6	0.90242994
53	0x3e3572b6	0.1771954
54	0x3ee5bee0	0.4487219
55	0x3f39d806	0.7259525
56	0x3f508675	0.81455165
57	0x3f5ed607	0.8704533
58	0x3f68cfa5	0.9094184
59	0x3ea8cbdf	0.3296804
60	0x3f229501	0.6350861
61	0x3f7c774f	0.9861955
62	0x3e2b3f2c	0.16723317
63	0x3f5bc4b2	0.8584701
64	0x3f2b28b6	0.66858995
65	0x3f1410e0	0.5783825
66	0x3f857336	1.0425785
67	0x3eb8ebe8	0.36117482
68	0x3eccb3c7	0.3998091
69	0x3e46489f	0.1936364
70	0x3f7587bf	0.9591026
71	0x3e30dff9	0.17272939
72	0x3f7b21e8	0.9809861
73	0x3e457beb	0.19285552
74	0x3f4ebc13	0.8075573
75	0x3e95d9cb	0.29267725
76	0x3f798f45	0.97484237
77	0x3e59c61b	0.21266977
78	0x3e5d0fcc	0.21588057
79	0x3ecbce3f	0.3980579
80	0x3dee26b5	0.116284765
81	0x3f85e5d5	1.0460764
82	0x3f3750eb	0.71607846
83	0x3e9e4421	0.30911353
84	0x3e223d0e	0.15843603
85	0x3ebb70ae	0.36609405
86	0x3f216764	0.63048387
87	0x3ea4135c	0.3204602
88	0x3f55fd1a	0.8358933
89	0x3e91814e	0.28418964
90	0x3f34785b	0.7049615
91	0x3f61f712	0.88267624
92	0x3e5d8421	0.21632434
93	0x3e32489c	0.17410511
94	0x3d6ffb3b	0.0585892
95	0x3f27a1db	0.65481347
96	0x3f6d5c46	0.92718923
97	0x3e785dae	0.24254486
98	0x3efc049f	0.49222276
99	0x3f593c44	0.84857583
100	0x3f707f35	0.939441
101	0x3f5532d9	0.8328071
102	0x3f39b24f	0.725377
103	0x3f241d1c	0.6410692
104	0x3f1a9206	0.60379064
105	0x3f80c86e	1.0061166
106	0x3f0c3a97	0.547769
107	0x3f3a2830	0.7271757
108	0x3f07aeb1	0.5300093
109	0x3f6984dc	0.9121835
110	0x3d1ab45c	0.03776966
111	0x3eb5a246	0.35475367
112	0x3d4ce012	0.050018378
113	0x3f276596	0.6538938
114	0x3edc10f2	0.42981678
115	0x3e10c03e	0.14135835
116	0x3e159f08	0.14611447
117	0x3f315a37	0.6927828
118	0x3f6f0a1f	0.9337482
119	0x3f7d2b4c	0.9889419
120	0x3f61c42e	0.8818997
121	0x3e21a056	0.1578382
122	0x3f773b39	0.9657474
123	0x3f81685a	1.010997
124	0x3f151764	0.58238816
125	0x3d8b6d3f	0.068079464
126	0x3e2e2a45	0.17008312
127	0x3dfd5f0f	0.123716466
128	0x3f2c14f7	0.6721949
129	0x3f77c125	0.9677909
130	0x3f64c539	0.8936344
131	0x3e8ded27	0.27719995
132	0x3eab6d1e	0.33481687
133	0x3f21809e	0.6308688
134	0x3e9a9cbd	0.30197707
135	0x3f05b1a2	0.5222417
136	0x3f2fa720	0.6861439
137	0x3ec395ef	0.38200328
138	0x3f3a632d	0.7280758
139	0x3ef2293c	0.47297084
140	0x3f7eb678	0.99497175
141	0x3e0aa530	0.13539577
142	0x3f7a452c	0.977618
143	0x3f683a63	0.9071409
144	0x3e0925c5	0.13393314
145	0x3f26fc79	0.6522899
146	0x3eef60d7	0.4675357
147	0x3f44b28a	0.7683493
148	0x3f623f5d	0.88377935
149	0x3e94f4bd	0.2909297
150	0x3e8ddcfb	0.27707657
151	0x3e1cdb7b	0.153181
152	0x3f6390fa	0.8889309
153	0x3e1c531a	0.15266076
154	0x3e8484e3	0.25882635
155	0x3f7aaf9b	0.979242
156	0x3f4668c1	0.7750359
157	0x3f5ebfe6	0.87011564
158	0x3f790ed6	0.9728826
159	0x3e070b07	0.131878
160	0x3ecdbcb5	0.40183035
161	0x3ef80e6b	0.484485
162	0x3f811e5e	1.0087392
163	0x3ec61d9f	0.38694474
164	0x3ef83437	0.48477337
165	0x3f59f5db	0.8514077
166	0x3f5171d2	0.818143
167	0x3e50bcce	0.20384523
168	0x3de7bccb	0.11315306
169	0x3ec40e67	0.38292238
170	0x3f2fbacd	0.6864441
171	0x3f82e531	1.0226194
172	0x3f4761cb	0.77883595
173	0x3f595914	0.8490155
174	0x3f2dbca0	0.67865944
175	0x3ed5c13a	0.41748983
176	0x3eec5224	0.46156418
177	0x3f76fe71	0.96481997
178	0x3f28a060	0.6586971
179	0x3f223e70	0.6337652
180	0x3f5aec46	0.85516775
181	0x3f621b19	0.883226
182	0x3f34481a	0.7042252
183	0x3efc4fef	0.49279734
184	0x3ea35ce8	0.3190682
185	0x3e77f729	0.24215378
186	0x3e8a8c86	0.27060336
187	0x3f6dfad8	0.9296088
188	0x3f78009d	0.96875936
189	0x3e9453f7	0.2897031
190	0x3f7daea9	0.99094635
191	0x3ecd7083	0.40124902
192	0x3edf43bb	0.43606362
193	0x3f36b369	0.7136751
194	0x3e12f5ed	0.14351626
195	0x3e89ac5f	0.2688932
196	0x3eeac1b3	0.45850906
197	0x3ed3ebc6	0.41390818
198	0x3f4854c6	0.78254354
199	0x3eda778c	0.42669332
200	0x3d840e67	0.064480595
201	0x3dcc68aa	0.099809006
202	0x3f80f0e5	1.0073515
203	0x3f4b5af6	0.7943567
204	0x3d853451	0.06504119
205	0x3e08f7f4	0.13375837
206	0x3e7408f6	0.23831543
207	0x3f79eaea	0.97624075
208	0x3f523c09	0.82122856
209	0x3f30943a	0.68976176
210	0x3f51aee4	0.81907487
211	0x3f213d08	0.6298375
212	0x3f6ceabc	0.92545676
213	0x3d97971d	0.074018694
214	0x3f6d64c9	0.9273191
215	0x3f4364e5	0.7632583
216	0x3f3ed1ae	0.74538696
217	0x3f62415e	0.8838099
218	0x3ee7c3ce	0.45266575
219	0x3e958a26	0.2920696
220	0x3edef0bf	0.4354305
221	0x3e1f1716	0.1553615
222	0x3f102e20	0.5632038
223	0x3f46a22e	0.77591217
224	0x3f2971b7	0.6618914
225	0x3f094936	0.53627336
226	0x3f3b049c	0.7305391
227	0x3dc5f988	0.09666735
228	0x3e5b2732	0.2140167
229	0x3e0170c5	0.12640674
230	0x3f86ee45	1.0541464
231	0x3d7380d9	0.05944905
232	0x3f4a3530	0.7898741
233	0x3f620da5	0.8830207
234	0x3ecf3343	0.40468797
235	0x3ef26414	0.4734198
236	0x3f78f5de	0.97250164
237	0x3d9175a1	0.07102514
238	0x382cebc5	4.1227573e-05
239	0x3efc8fde	0.49328512
240	0x3ef6f52e	0.48233932
241	0x3ea3966f	0.3195071
242	0x3f14bfaa	0.58104956
243	0x3f55e11c	0.83546615
244	0x3f536c6c	0.82587314
245	0x3f356ba8	0.70867395
246	0x3f64f331	0.8943358
247	0x3ea7fcb1	0.32809976
248	0x3f1d8c87	0.6154255
249	0x3f362583	0.7115099
250	0x3f3a3cda	0.727491
251	0x3ec4dd9d	0.38450328
252	0x3f72bfcb	0.948239
253	0x3e0cb3fe	0.13740537
254	0x3e8910d4	0.2677065
255	0x3b8726fa	0.0041245194

bn1.bias f4 [256]
0	0x3d5c62be	0.053805105
1	0x3ca1e4dd	0.01976245
2	0x3b8c26f1	0.004277103
3	0x3d919364	0.07108191
4	0x3cda773b	0.026668182
5	0x3d21dd8d	0.039517928
6	0x3c12c962	0.008959146
7	0x3d9242d3	0.07141652
8	0x3d84e3ab	0.06488737
9	0x3d869235	0.065708555
10	0x3d486012	0.048919745
11	0x3d5f14b0	0.05446309
12	0x3d8b95a3	0.0681565
13	0x3d866fe2	0.06564309
14	0x3d53480c	0.05158238
15	0x3d989073	0.074494265
16	0x3d50c9e4	0.050973788
17	0x3d404096	0.046936594
18	0xbb89baea	-0.00420319
19	0x3d791b42	0.06081701
20	0x3d6f9bc0	0.058498144
21	0x3d7b392e	0.061333828
22	0xbc5d4bf4	-0.013506878
23	0x3cfb49db	0.030674865
24	0x3d7b2146	0.06131103
25	0x3cecef34	0.028922655
26	0x3d4f6a5e	0.05063855
27	0x3d3dfbd5	0.046382744
28	0x3c720061	0.014770598
29	0x3cf37167	0.02971716
30	0x3d6dfcc2	0.058102377
31	0x3d61d9d4	0.055139378
32	0x3d754aa4	0.059885636
33	0x3d3f6858	0.04673037
34	0x3c720f0b	0.014774094
35	0x3d42fbd5	0.047603447
36	0x3d7cb43e	0.06169533
37	0x3d3efc4e	0.046627335
38	0x3d848ede	0.06472562
39	0x3c98ff86	0.01867653
40	0x3d50c7e5	0.050971884
41	0x3d361ecc	0.044462964
42	0x3d508ef8	0.050917596
43	0x3d6407ee	0.055671625
44	0x3ccb162e	0.02479085
45	0x3d72aa77	0.0592446
46	0x3d5e9681	0.05434275
47	0x3d585c37	0.052822318
48	0x3cbbf4ce	0.02294388
49	0x3d667a6d	0.056269098
50	0x3d8189d5	0.063251175
51	0x3d4f5958	0.050622314
52	0x3d75014b	0.059815686
53	0x3d8b61bf	0.06805753
54	0x3d7cc3d6	0.0617102
55	0x39e92887	0.00044471418
56	0x3d3a3b1c	0.045466527
57	0x3d8f464e	0.069958314
58	0x3d7b55ae	0.061361007
59	0x3d76756b	0.060170572
60	0x3ce3e5b3	0.02781949
61	0x3d6c0492	0.057621546
62	0x3d879824	0.066208154
63	0x3d015c0b	0.03158192
64	0x3d2248c9	0.039620195
65	0x3d656e00	0.056013107
66	0x3d522cff	0.051312443
67	0x3d8c124a	0.06839426
68	0x3d1d93de	0.038471095
69	0x3d8162d8	0.06317681
70	0x3d1e75ad	0.038686443
71	0x3ce28602	0.02765179
72	0x3cd373ac	0.025811993
73	0x3d807a3a	0.06273313
74	0x3ba57d08	0.0050503053
75	0x3d3ffb19	0.046870325
76	0x3d161cc3	0.036648523
77	0x3d410a6f	0.04712909
78	0x3d2a51b2	0.041581817
79	0x3d2f6043	0.04281641
80	0x3bf49173	0.007463628
81	0x3d99fd1a	0.075189784
82	0x3cff99ad	0.031201208
83	0x3d8dda5c	0.06926414
84	0x3d1f5f03	0.03890897
85	0x3cb4688c	0.022022508
86	0x3d63e64c	0.05563955
87	0x3d3e70be	0.046494238
88	0x3d4887bd	0.048957575
89	0x3cd13878	0.025539622
90	0x3d60c6f3	0.054877233
91	0xba555afe	-0.0008138864
92	0x3d91d3fd	0.07120512
93	0x3d88ff61	0.06689335
94	0x3d446c05	0.047954578
95	0x3d61dbd8	0.0551413
96	0x3d15130c	0.036395118
97	0x3d6b34a9	0.057423268
98	0x3d73a52a	0.059483685
99	0x3d026d6d	0.031842638
100	0x3d5f7737	0.05455705
101	0x3d812ed9	0.063077636
102	0x3d8c3c41	0.0684743
103	0x3d55be97	0.052183714
104	0x3d8c40b1	0.068482764
105	0x3d8f0658	0.06983632
106	0x3cf842da	0.030305315
107	0x3d002002	0.031280525
108	0x3d85a74a	0.065260485
109	0xbbcc0c23	-0.0062270327
110	0x3d869ba0	0.06572652
111	0xbc5c0e5d	-0.013431159
112	0x3c8c1148	0.017098084
113	0x3d19b21c	0.037523374
114	0x3d34aa3a	0.044107653
115	0x3d4e8973	0.05042405
116	0x3ccea4d9	0.02522509
117	0x3d4f8244	0.05066134
118	0x3d6f3936	0.05840417
119	0x3d81f4bc	0.063455075
120	0x3d06b086	0.03288319
121	0x3d82b07e	0.063813195
122	0x3d42057f	0.047368523
123	0x3d0960ae	0.033539467
124	0x3d6c23df	0.057651397
125	0x3d66cf90	0.05635029
126	0x3ca795a6	0.0204571
127	0x3d89c1c0	0.06726408
128	0x3db659eb	0.08903869
129	0x3d6d72eb	0.057970922
130	0x3d92d7ec	0.0717009
131	0x3c8509bc	0.016239993
132	0x3d562a49	0.05228642
133	0x3b3f5a97	0.0029198283
134	0x3d8daa44	0.06917241
135	0x3d90e95b	0.07075759
136	0x3d288e27	0.041151192
137	0x3d82d693	0.06388583
138	0x3d550a2b	0.05201165
139	0x3d34aadf	0.044108268
140	0x3d0f2c44	0.034954324
141	0x3d2ac0fd	0.041687954
142	0x3d4ae9e7	0.049539473
143	0x3d95ea0b	0.07320031
144	0x3db3f7f0	0.08787525
145	0x3d16a493	0.036778044
146	0x3ce2aeb0	0.027671188
147	0x3d1e680c	0.038673446
148	0x3c92b37e	0.017907854
149	0x3d85394c	0.06505069
150	0x3d6f3482	0.058399685
151	0x3c91bb58	0.017789528
152	0x3bd0e564	0.0063750017
153	0x3d933222	0.071872965
154	0x3d91f623	0.07127025
155	0x3ce3712f	0.027763931
156	0xbc146d78	-0.0090593025
157	0x3cd66f1c	0.026176028
158	0x3d283f6b	0.041076105
159	0x3d889ffa	0.06671138
160	0x3ca62be3	0.020284599
161	0x3c6c51c2	0.014423789
162	0x3d43939a	0.047748186
163	0x3c1bc054	0.009506304
164	0xbaf19441	-0.0018431024
165	0x3d8c4e2f	0.0685085
166	0x3d5ba3da	0.053623058
167	0x3c7abd85	0.015303974
168	0x3d477bf8	0.04870221
169	0x3d97f724	0.07420185
170	0x3cec33c1	0.028833272
171	0x3d49a240	0.049227
172	0x3d4b32b4	0.0496089
173	0x3d817585	0.06321243
174	0x3c5edaf7	0.01360201
175	0x3d3a63f4	0.04550548
176	0x3d2d3b4b	0.042292874
177	0x3d3e1855	0.046409924
178	0x3d5b5168	0.053544432
179	0x3ce50495	0.027956286
180	0x3d526ea0	0.05137503
181	0x3c1e3534	0.009656239
182	0x3d79f9ac	0.06102912
183	0x3d06fb05	0.032954235
184	0x3d275eec	0.04086201
185	0x3d3316bb	0.04372285
186	0x3ba114b0	0.004915796
187	0x3b8c8255	0.0042879977
188	0x3d8a25e7	0.067455105
189	0x3d57996c	0.05263655
190	0x3d823615	0.063579716
191	0x3d02da82	0.031946667
192	0x3d8196cf	0.063275926
193	0x3d5918fe	0.05300235
194	0x3d3c2679	0.045935128
195	0x3d7866f9	0.060645077
196	0x3cf12ee5	0.029441306
197	0x3d982392	0.074286595
198	0x3d097600	0.0335598
199	0x3d3533b6	0.04423877
200	0xbc64f41d	-0.013974217
201	0x3cb0a1f2	0.021561597
202	0x3c77f62c	0.015134376
203	0x3d80bc62	0.06285931
204	0x3d7aeb28	0.06125942
205	0x3d41c4aa	0.047306694
206	0x3d557810	0.052116454
207	0x3c3255c7	0.010884709
208	0x3d34dd8a	0.04415659
209	0x3bafd03f	0.005365401
210	0x3cde64ee	0.027147736
211	0x3d3bc9a5	0.0458466
212	0x3d86c2e7	0.065801434
213	0xbcf5af0e	-0.0299907
214	0x3d040b9e	0.03223764
215	0x3cfc9627	0.030833317
216	0x3da57e25	0.08080701
217	0x3d6232b4	0.055224136
218	0x3d3db7cd	0.046317864
219	0x3c98b9a2	0.018643204
220	0x3d8eebf8	0.06978601
221	0x3cfae602	0.030627254
222	0x3d73a20b	0.059480708
223	0x3c827b69	0.015927987
224	0x3d89cfd0	0.0672909
225	0x3d63de79	0.05563209
226	0x3d2f19b5	0.042749126
227	0x3d8214c2	0.063516155
228	0x3d101b58	0.035182327
229	0x3d82cd32	0.06386794
230	0x3d6b476f	0.05744117
231	0x3c0533dc	0.00813004
232	0x3d53dde7	0.051725294
233	0x3af98492	0.0019036701
234	0x3d252c96	0.040325724
235	0x3d34ab74	0.044108823
236	0x3d78bd92	0.060727663
237	0xbcefc1b2	-0.029267166
238	0xba95883b	-0.0011408398
239	0x3d8b861b	0.06812688
240	0x3d44459f	0.04791796
241	0x3c9971ec	0.01873108
242	0x3d28cad2	0.04120905
243	0x3d7e9c36	0.062160693
244	0x3d7abf93	0.061217856
245	0x3d7ec1af	0.06219643
246	0x3d3365c9	0.04379824
247	0x3d7b60de	0.061371677
248	0x3da01940	0.07817316
249	0x3d2395cf	0.03993779
250	0x3d845a87	0.06462579
251	0x3d7fbcca	0.062435903
252	0x3d232992	0.039834566
253	0x3c4dd530	0.012563035
254	0xbbde1bad	-0.0067782016
255	0xbc5841d2	-0.013199287

bn1.running_mean f4 [256]
0	0xbcfb94e0	-0.030710638
1	0xbc12a1e2	-0.008949729
2	0xbe2f258e	-0.1710417
3	0x3ec13a95	0.37740007
4	0x3d3ed534	0.046590045
5	0xbf359b7c	-0.70940375
6	0xbe8f3f82	-0.2797814
7	0xbdb9f5be	-0.09080075
8	0xbe944503	-0.28958902
9	0xbeb95ab6	-0.3620202
10	0xbe3ef658	-0.1864866
11	0xbe1f163f	-0.1553583
12	0xbeb7dc90	-0.35910463
13	0xbde46c68	-0.11153489
14	0x3d9caa4b	0.07649668
15	0xbe4aa7d8	-0.1979059
16	0xbaf906c5	-0.001899921
17	0xbe95c348	-0.2925055
18	0x3e6e94fc	0.2329902
19	0x3e18fe05	0.14940651
20	0x3e3349e3	0.17508654
21	0x3f1e95be	0.6194724
22	0xbec7d6cd	-0.39031067
23	0xbd6a936f	-0.05726951
24	0x3e224fff	0.15850829
25	0xbda34cd6	-0.0797364
26	0xbe035c70	-0.12828231
27	0xbeb88334	-0.360376
28	0xbe794c33	-0.24345474
29	0x3ea32534	0.3186432
30	0x3d989645	0.07450537
31	0xbee40f48	-0.4454291
32	0xbd3a5c73	-0.045498323
33	0xbe6f65ae	-0.23378631
34	0x3eae9b1e	0.3410272
35	0x3e4658ce	0.19369814
36	0x3e8fbcfa	0.28073865
37	0x3e87d4ef	0.26529643
38	0x3cb9addb	0.022665909
39	0xbd77e9f6	-0.060525857
40	0x3df18f44	0.11794904
41	0xbe3f03c6	-0.18653783
42	0x3dcac3b8	0.09900612
43	0x3de6524c	0.11246166
44	0x3d22b46c	0.039722845
45	0xbeed986a	-0.46405345
46	0x3eb80e8c	0.35948598
47	0x3e84b280	0.25917435
48	0x3c0b29d8	0.008493863
49	0x3e013f6c	0.1262185
50	0x3e607bc0	0.21922207
51	0xbe437ca8	-0.19090521
52	0x3d72813a	0.05920527
53	0xbe4bde3b	-0.19908993
54	0xbebae332	-0.3650146
55	0x3e11d5c0	0.14241695
56	0x3ee7ce82	0.4527474
57	0x3e9ec110	0.3100667
58	0x3de13c66	0.10997848
59	0x3df4a211	0.11944974
60	0xbe861f57	-0.26195785
61	0x3ee34aac	0.44392908
62	0xbea30893	-0.3184248
63	0xbed2cdbb	-0.41172585
64	0xbe95a738	-0.2922914
65	0xbeed08b4	-0.46295702
66	0xbe314eee	-0.17315266
67	0x3e647801	0.22311403
68	0x3f000525	0.5000785
69	0xbe5dcd89	-0.21660437
70	0x3b67d223	0.0035373054
71	0xbe09e989	-0.13467993
72	0x3d7a3ce0	0.06109321
73	0x3e1752a1	0.14777614
74	0xbd92d0d2	-0.071687356
75	0x3dd87acd	0.105702974
76	0xbe2ab4ec	-0.16670579
77	0xbe07f605	-0.13277443
78	0xbddc479f	-0.10755848
79	0xbee03e7c	-0.43797672
80	0xbe92c556	-0.2866618
81	0xbac4c73e	-0.0015012992
82	0xbdf84f4d	-0.121245004
83	0x3dd5af7c	0.104338616
84	0x3d5b3806	0.053520225
85	0xbda01b41	-0.07817698
86	0x3eeef532	0.46671444
87	0xbdf9f036	-0.1220402
88	0x3d8d950e	0.069131956
89	0x3c765a8c	0.0150362365
90	0x3dca33a5	0.09873132
91	0x3c1a0516	0.009400627
92	0x3e56926e	0.20954296
93	0x3e0089b5	0.12552531
94	0xbdd1cea0	-0.10244489
95	0x3e156661	0.14589836
96	0xbe8a191c	-0.26972282
97	0xbe092f72	-0.13397005
98	0xbdaf83b2	-0.08570041
99	0x3da5276d	0.080641605
100	0x3cc07cea	0.023497064
101	0xbea3adc3	-0.31968507
102	0xb919545a	-0.0001462264
103	0xbd977eba	-0.07397218
104	0xbf364465	-0.7119811
105	0x3f01baaa	0.5067545
106	0xbe140be7	-0.14457665
107	0x3eb3631f	0.3503656
108	0x37e777cd	2.7593132e-05
109	0xbdda66ab	-0.106641136
110	0x3e7c5a8d	0.24643917
111	0x3d890870	0.066910625
112	0xbe54e9b7	-0.2079228
113	0xbed2d154	-0.4117533
114	0xbd88f692	-0.066876546
115	0x3e18fb4b	0.1493961
116	0xbe6c73c5	-0.23091038
117	0xbd9b1e6c	-0.07574162
118	0x3eb387d7	0.35064575
119	0xbdef7f13	-0.11694159
120	0x3f049234	0.5178559
121	0x3e485df8	0.19567096
122	0x3e17b03b	0.1481332
123	0xbe52110d	-0.20514317
124	0x3e4a5cf1	0.19762017
125	0x3e8d6366	0.27614897
126	0x3d183c59	0.037166927
127	0xbe3c51da	-0.18390599
128	0x3dff681e	0.12471031
129	0xbd697d7d	-0.05700444
130	0xbeea4dd2	-0.45762497
131	0xbcba6c9a	-0.022756863
132	0x3e53be02	0.20677951
133	0xbdb4a801	-0.08821107
134	0x3e4a9ef1	0.19787194
135	0xbe224152	-0.1584523
136	0x3c703faa	0.014663616
137	0x3e1e6775	0.15469153
138	0xbf049648	-0.5179181
139	0xbe1cb7dd	-0.15304513
140	0x3dae32ec	0.08505806
141	0xbe552d47	-0.20818053
142	0xbe5b78f2	-0.21432856
143	0x3c4b218d	0.012398136
144	0x3e86ec01	0.26351932
145	0xbda640cb	-0.08117827
146	0x3dc4a14a	0.09601076
147	0xbdeeb9df	-0.11656546
148	0x3e4ff690	0.203089
149	0xbdad515d	-0.084627844
150	0x3eb45b91	0.3522611
151	0xbdb0aa4d	-0.08626232
152	0x3e4bda88	0.19907582
153	0x3eb94b9a	0.36190492
154	0x3e55a08b	0.20862024
155	0x3e8bc245	0.27296653
156	0x3e3ae4b5	0.18251307
157	0xbe9ba696	-0.30400532
158	0xbdf5f8a5	-0.12010316
159	0x3c3139bb	0.010816987
160	0x3d9f2e8a	0.077725485
161	0xbe3140f1	-0.1730993
162	0xbeb0a1d6	-0.3449847
163	0xbe0eb219	-0.13935126
164	0xbb0d51f7	-0.0021563747
165	0xbea63621	-0.32463172
166	0xbdcdb856	-0.10044925
167	0xbdb56d34	-0.088587195
168	0xbdaad410	-0.08341229
169	0x3e0963c0	0.13416958
170	0xbe1bc624	-0.15212303
171	0x3dc6c4a1	0.09705473
172	0x3f33b1b6	0.7019304
173	0x3eede5bc	0.46464336
174	0x3e371939	0.17880715
175	0x3ea109e8	0.3145287
176	0x3de0440d	0.1095048
177	0x3c8670a7	0.016411139
178	0x3d218e81	0.039442543
179	0xbe93bfa6	-0.28857154
180	0xba020a0a	-0.00049606024
181	0xbd6effa3	-0.058349263
182	0xbb2f26eb	-0.0026726078
183	0x3e35f300	0.17768478
184	0xbe8ec4b4	-0.27884448
185	0xbe975c88	-0.29562783
186	0x3d8a2aef	0.0674647
187	0xbdb1411a	-0.08654995
188	0x3df49b05	0.1194363
189	0x3eee4862	0.465396
190	0x3dbd0218	0.09228915
191	0xbe8bb940	-0.27289772
192	0x3d2bcd2e	0.04194372
193	0xbef0b898	-0.47015834
194	0x3db0d437	0.08634227
195	0xbd84f2d7	-0.064916305
196	0x3e13fbfd	0.14451595
197	0x3ddbe5fb	0.10737225
198	0xbf02bba6	-0.5106758
199	0xbdb7fb49	-0.08983476
200	0x3ecf8c68	0.4053681
201	0x3d8fbdf6	0.07018654
202	0xbdc82339	-0.09772343
203	0x3d4bc363	0.049746882
204	0x3e635bf9	0.22203054
205	0xbcf4a154	-0.029862083
206	0x3df68994	0.1203796
207	0xbe0f8458	-0.14015329
208	0x3e6544b4	0.2238949
209	0x3cea6e3d	0.028617019
210	0x3d96c2a7	0.07361346
211	0x3e1cb702	0.15304187
212	0x3e651d3a	0.2237443
213	0x3ddf6482	0.10907842
214	0xbca59110	-0.020210773
215	0x3f020f6b	0.50804776
216	0x3de2b374	0.11069384
217	0x3d58c5d6	0.052923046
218	0x3cec9b05	0.028882513
219	0x3e6fd022	0.2341924
220	0xbe2f76f9	-0.17135228
221	0xbec27ced	-0.37985936
222	0xbeb76d33	-0.358255
223	0xbe987cc0	-0.29782677
224	0x3e6da5c5	0.23207767
225	0x3e343fcb	0.1760246
226	0xbe9e193a	-0.3087862
227	0x3ed2d305	0.4117662
228	0x3cdf209c	0.027237229
229	0x3f31af67	0.6940827
230	0xbc864e18	-0.01639466
231	0x3f065aa4	0.52482057
232	0xbe48d22c	-0.19611424
233	0xbe890fa2	-0.2676974
234	0x3ecb9c9c	0.3976792
235	0xbeaa6bb7	-0.33285305
236	0xbc831ac1	-0.016003968
237	0x3dfc1d9b	0.12310334
238	0xbd669c19	-0.05630121
239	0xbd39c6ac	-0.045355484
240	0x3e9ef7cf	0.31048438
241	0xbe84164f	-0.2579827
242	0xbeb4d913	-0.35321864
243	0xbe07786e	-0.13229534
244	0x3eb77743	0.35833177
245	0x3ed2d62b	0.41179022
246	0xbd0c1fbb	-0.034209948
247	0x3ed12d3a	0.40854818
248	0x3e33916a	0.1753594
249	0x3d30027a	0.04297111
250	0xbc4e39a9	-0.012586989
251	0x3e9c620e	0.3054356
252	0xbda73339	-0.08164067
253	0xbe9312a3	-0.28725156
254	0x3e4e65fa	0.20156088
255	0xbe7a9c69	-0.24473728

bn1.running_var f4 [256]
0	0x3eb58231	0.3545089
1	0x3ebcfbf3	0.36910972
2	0x3ebdcbd2	0.37069565
3	0x3f14bc74	0.58100057
4	0x3ee3b19e	0.4447145
5	0x3f1414a7	0.5784401
6	0x3eb39d04	0.3508073
7	0x3f327e42	0.69723904
8	0x3eb6beef	0.35692546
9	0x3eda7888	0.42670083
10	0x3ee3f13e	0.4451999
11	0x3e22edf0	0.15911078
12	0x3eb6c373	0.3569599
13	0x3ef353b0	0.47524786
14	0x3ece0ca7	0.40244028
15	0x3f253f7d	0.6455
16	0x3f1460e4	0.57960343
17	0x3f15aaeb	0.58463925
18	0x3e78fc8f	0.24315093
19	0x3eeddd3d	0.46457854
20	0x3ef7bde9	0.48387077
21	0x3ed9c68a	0.42534286
22	0x3f025daf	0.509242
23	0x3ebc8824	0.36822617
24	0x3e52ca67	0.20585023
25	0x3e7cdec1	0.24694349
26	0x3e828b73	0.25497016
27	0x3eb5e2e6	0.35524672
28	0x3e9c5b64	0.30538476
29	0x3ec7b9d3	0.3900896
30	0x3ef85b31	0.48507074
31	0x3eb2597f	0.34833905
32	0x3e7152f7	0.23566805
33	0x3ea76dd7	0.3270099
34	0x3ec70377	0.3886983
35	0x3ee38ccd	0.4444336
36	0x3e8bc868	0.27301335
37	0x3efc8ec0	0.4932766
38	0x3e232fb2	0.15936163
39	0x3e9f729d	0.3114213
40	0x3ed93516	0.42423314
41	0x3edf9057	0.4366481
42	0x3e929b7d	0.28634253
43	0x3e871288	0.26381326
44	0x3ef856d3	0.48503742
45	0x3e7b8c49	0.24565233
46	0x3e5f1156	0.21783957
47	0x3ec2dea4	0.38060486
48	0x3e83b27e	0.25722116
49	0x3e9286b8	0.28618407
50	0x3e9f94d5	0.31168237
51	0x3ed0d384	0.40786374
52	0x3e9ad299	0.30238798
53	0x3f06e65b	0.52695245
54	0x3e9994f8	0.29996467
55	0x3ece8d7c	0.4034232
56	0x3f06c73c	0.5264776
57	0x3f069f40	0.52586746
58	0x3ee3efc3	0.4451886
59	0x3f146319	0.5796371
60	0x3ed912ca	0.42397147
61	0x3ed472f0	0.4149394
62	0x3e663618	0.22481573
63	0x3ea3cbdf	0.3199148
64	0x3ed35c33	0.4128128
65	0x3eda1598	0.425946
66	0x3ed1fdf5	0.41014066
67	0x3e8843d9	0.26614264
68	0x3eae5536	0.34049386
69	0x3ed69556	0.4191081
70	0x3eaecbc5	0.3413984
71	0x3ecb3637	0.396898
72	0x3eb2252d	0.34793988
73	0x3ec67d03	0.3876725
74	0x3ec3ae97	0.3821914
75	0x3ef32963	0.47492513
76	0x3e479e7e	0.19494054
77	0x3ee8cbba	0.4546793
78	0x3ebb8003	0.36621103
79	0x3f08aa96	0.53385293
80	0x3f09aa99	0.53775936
81	0x3eaeb62f	0.3412337
82	0x3e02d5fe	0.12776944
83	0x3e720b84	0.23637205
84	0x3ea24968	0.3169663
85	0x3ea339f0	0.3188014
86	0x3e767a43	0.24070077
87	0x3e8f940d	0.2804264
88	0x3f005e73	0.5014412
89	0x3e9771f5	0.2957913
90	0x3eeb2d8d	0.4593319
91	0x3ed618f3	0.4181591
92	0x3e5316b1	0.20614125
93	0x3ef8d444	0.48599446
94	0x3eff8189	0.49903515
95	0x3eb3aea1	0.3509417
96	0x3eed6292	0.46364266
97	0x3e805a88	0.2506907
98	0x3ef215d9	0.47282293
99	0x3e8877bf	0.2665386
100	0x3eadf65e	0.33977026
101	0x3ee06d3c	0.4383334
102	0x3e618143	0.22021966
103	0x3eb22c7e	0.3479957
104	0x3eed98ca	0.4640563
105	0x3edf534b	0.43618235
106	0x3ecf5565	0.40494838
107	0x3f08bd80	0.53414154
108	0x3e5d7c17	0.21629368
109	0x3ebacf07	0.36486074
110	0x3ebc48a1	0.3677416
111	0x3ebacbb2	0.36483532
112	0x3eb54f83	0.35412225
113	0x3edb7319	0.4286125
114	0x3ea20677	0.31645557
115	0x3eb4669d	0.35234538
116	0x3ebf8f62	0.3741408
117	0x3ed86566	0.4226486
118	0x3e98ec0d	0.29867592
119	0x3e44fe1b	0.19237559
120	0x3ed01c4a	0.40646583
121	0x3e9b6d03	0.30356607
122	0x3f2f2f48	0.6843152
123	0x3e98edc9	0.29868916
124	0x3f04e41b	0.5191056
125	0x3ed56974	0.41682017
126	0x3ea6d236	0.32582253
127	0x3f21d320	0.63212776
128	0x3ed8c17b	0.42335114
129	0x3e758296	0.23975596
130	0x3e6d2e75	0.23162253
131	0x3efb733e	0.4911136
132	0x3e955b2f	0.2917113
133	0x3ea1ab4e	0.31576008
134	0x3edfddaa	0.43723804
135	0x3ea56b6c	0.3230852
136	0x3edb58c1	0.4284115
137	0x3e91c711	0.28472188
138	0x3ea69041	0.32531932
139	0x3ebdcb2c	0.3706907
140	0x3e8e053d	0.27738371
141	0x3f0843d4	0.532285
142	0x3e627738	0.22115791
143	0x3ebea785	0.37237182
144	0x3ec8711d	0.391488
145	0x3ecb2563	0.3967696
146	0x3e55a4a9	0.20863594
147	0x3e7d7b61	0.24754097
148	0x3f360301	0.71098334
149	0x3effb05f	0.49939248
150	0x3f13d6f2	0.57749856
151	0x3e9783d3	0.2959276
152	0x3e4c6031	0.19958569
153	0x3e65045c	0.22364944
154	0x3f068a5d	0.52554876
155	0x3f001f4a	0.50047743
156	0x3efc6bda	0.49301034
157	0x3ed30f39	0.4122255
158	0x3eaa4594	0.3325621
159	0x3eaf7c1b	0.34274372
160	0x3ebcd913	0.36884364
161	0x3ee871ca	0.45399314
162	0x3eb6ebed	0.35726872
163	0x3ea9c2fd	0.33156577
164	0x3f1c5ad8	0.61076117
165	0x3eca9e3a	0.39573842
166	0x3ea1a7c7	0.31573316
167	0x3eb8d18e	0.36097378
168	0x3ee56bb5	0.44808736
169	0x3ee6a3b0	0.4504676
170	0x3f081d4d	0.5316971
171	0x3eeb2b1c	0.45931327
172	0x3ea58dfd	0.3233489
173	0x3e845871	0.25848725
174	0x3e8cefad	0.27526608
175	0x3eadbc2f	0.33932635
176	0x3e888c0f	0.26669356
177	0x3ea57498	0.32315516
178	0x3edfb309	0.4369128
179	0x3e8be7e0	0.27325344
180	0x3ed72a71	0.42024568
181	0x3e946152	0.289805
182	0x3ed73e07	0.4203951
183	0x3f09b7f7	0.53796333
184	0x3f51be6c	0.81931186
185	0x3eee65f6	0.46562165
186	0x3f33e8ae	0.70276916
187	0x3ede41e3	0.43409643
188	0x3e7d526f	0.24738477
189	0x3e812e51	0.2523065
190	0x3e3f1732	0.18661192
191	0x3ea0bcde	0.31394094
192	0x3ea54578	0.32279563
193	0x3f1050d8	0.5637336
194	0x3e99e5f3	0.3005825
195	0x3e8fd099	0.28088835
196	0x3f012727	0.50450367
197	0x3f2f5d34	0.6850159
198	0x3ec18271	0.3779483
199	0x3e8bbf16	0.27294225
200	0x3e91546b	0.28384718
201	0x3f0aea37	0.54263633
202	0x3f3fbf54	0.7490132
203	0x3e906011	0.28198293
204	0x3f03c023	0.5146505
205	0x3ea64a35	0.3247849
206	0x3e8891f5	0.26673856
207	0x3edaa657	0.42705032
208	0x3efa8f54	0.48937476
209	0x3f28c45e	0.6592463
210	0x3e690091	0.22754122
211	0x3e8dd3f6	0.27700776
212	0x3e83e723	0.2576228
213	0x3ee945fa	0.455612
214	0x3e907c69	0.28219917
215	0x3f1cd497	0.61261886
216	0x3eaeb164	0.34119713
217	0x3eb631bd	0.35584822
218	0x3f12bbf1	0.57318026
219	0x3ed9724c	0.42470014
220	0x3e7dbbae	0.24778625
221	0x3e945819	0.28973463
222	0x3f0070f3	0.50172347
223	0x3efb0dc5	0.49033943
224	0x3f190e3c	0.59787345
225	0x3ebf47d0	0.37359476
226	0x3eca488e	0.3950848
227	0x3ee81ca3	0.45334348
228	0x3ef51d76	0.4787404
229	0x3ef50bdd	0.47860613
230	0x3e9c38b4	0.3051201
231	0x3f43137a	0.76201594
232	0x3e935c7e	0.28781503
233	0x3e61c4a2	0.22047666
234	0x3edf4072	0.43603855
235	0x3f0c571c	0.5482042
236	0x3ea8c927	0.32965967
237	0x3f11c978	0.5694804
238	0x3e6b9528	0.23006117
239	0x3ec845b0	0.39115667
240	0x3edc28e5	0.4299995
241	0x3f02123b	0.5080907
242	0x3f11ed70	0.57002926
243	0x3e91d971	0.28486207
244	0x3ed5df4c	0.41771924
245	0x3e91dc1d	0.28488246
246	0x3ed07012	0.40710503
247	0x3edcf57a	0.43156034
248	0x3e6ecfb2	0.23321417
249	0x3ebf9934	0.37421572
250	0x3e28c7c8	0.1648246
251	0x3ed721c5	0.42017952
252	0x3f16b557	0.5887045
253	0x3f24c8eb	0.64369076
254	0x3f32c219	0.6982742
255	0x3f2ec179	0.68263966

fc2.weight f4 [128, 256]
0	0x3ddd5b11	0.10808385
1	0x3d9d3517	0.07676142
2	0xbd640cd3	-0.055676293
3	0x3bcc2e97	0.00623114
4	0x3da9fce8	0.08300191
5	0x3daa5bc4	0.08318284
6	0x3d2608a3	0.04053558
7	0x3c4127b3	0.01178925
8	0x3dc60fc1	0.096709736
9	0x3c609496	0.013707301
10	0xbc860f59	-0.01636474
11	0x3d1019fd	0.035181034
12	0x3d7c58dd	0.061608184
13	0x3d845d1a	0.0646307
14	0xbc299be6	-0.0103521105
15	0x3c9febc9	0.01952161
16	0x3cb47ac0	0.022031188
17	0x3cf05a00	0.02933979
18	0xbcc30a34	-0.023808576
19	0xbc5e65ef	-0.013574108
20	0x3dc5a9f0	0.09651554
21	0xbbc6c6bc	-0.0060661715
22	0x3dae30b2	0.08505382
23	0x3dc60a02	0.096698776
24	0x3d4a818a	0.049439944
25	0xbd0ca60a	-0.034338035
26	0x3d8cecc7	0.06881099
27	0x3de9725d	0.11398766
28	0x3dba047d	0.09082887
29	0xbc986e64	-0.018607326
30	0x3dd15308	0.10220915
31	0xbc21f806	-0.009885794
32	0x3d896393	0.067084454
33	0x3dad377b	0.08457848
34	0xbd19b879	-0.037529442
35	0x3dc986b2	0.09840144
36	0x3dc0c62b	0.094127975
37	0x3da8be23	0.08239391
38	0xbd177a5c	-0.036981925
39	0x3dcd6702	0.10029413
40	0xbd6363d7	-0.055515137
41	0xbcb53c6f	-0.022123544
42	0xbc86d542	-0.016459111
43	0x3db5a397	0.08869093
44	0xbce11c31	-0.027479263
45	0xbc0762b4	-0.008263279
46	0xbcd559ae	-0.02604374
47	0x3cda3d7f	0.026640652
48	0x3d8d3901	0.06895638
49	0xbd8851be	-0.06656216
50	0x3d7bb62a	0.061453022
51	0xba9ce556	-0.0011970203
52	0x3ddac958	0.106829345
53	0xbcf4f077	-0.029899819
54	0xbc6a5581	-0.014302612
55	0x3c311840	0.010809004
56	0x3d471dab	0.048612278
57	0x3dc7cf88	0.0975638
58	0x3d5a063e	0.05322861
59	0xbc857404	-0.016290672
60	0xbc408ab8	-0.011751823
61	0xbc394ec1	-0.01131028
62	0x3df9f727	0.12205344
63	0xbc1d922a	-0.009617368
64	0x3d0c7a68	0.034296423
65	0x3da846e5	0.08216647
66	0xbd46dfb3	-0.04855318
67	0x3dd83efe	0.1055889
68	0x3c5f1faf	0.013618394
69	0xbb1c55e4	-0.0023854906
70	0x3d815b2c	0.06316218
71	0x3bfc98bc	0.007708637
72	0x3c5af13a	0.013363177
73	0xbcac74e7	-0.021051837
74	0x3d2930e7	0.041306403
75	0x3ce30bf3	0.027715659
76	0xbca88d69	-0.020575242
77	0xbd017d01	-0.031613354
78	0x3bf266fb	0.00739753
79	0x3d37ccf7	0.044873204
80	0x3d1ddce3	0.038540732
81	0x3d99ed75	0.075159945
82	0x3ac85ae5	0.0015285878
83	0x3d7739f6	0.06035801
84	0xbd53b5a5	-0.0516869
85	0x3cec831b	0.02887111
86	0x3d209b23	0.03921045
87	0x3c4ba90a	0.012430439
88	0x3c741265	0.014896964
89	0x3cd80ec1	0.026374223
90	0x3dd0e530	0.10199964
91	0xbd54d71b	-0.051962953
92	0xbd51c98f	-0.051217612
93	0x3d45e4c4	0.04831387
94	0xbd2acc6c	-0.04169886
95	0xbcc48d87	-0.023993267
96	0x3ddb59dc	0.10710499
97	0xbbf99f5a	-0.007617873
98	0x3d461196	0.048356615
99	0x3da69eb5	0.0813574
100	0x3db1ef81	0.0868826
101	0xbd1dd997	-0.038537588
102	0x3ceaffea	0.028686482
103	0x3d93c882	0.07215978
104	0xbd6c6b58	-0.05771956
105	0x3db32dde	0.08748983
106	0xbcf39623	-0.029734677
107	0xbcdf7c02	-0.027280811
108	0x3de66960	0.112505674
109	0xbd41de58	-0.047331184
110	0x3ddf5522	0.1090491
111	0x3c17e8c7	0.009271807
112	0xbc629295	-0.013828893
113	0x3dde9a45	0.10869268
114	0x3d401d55	0.046902973
115	0xbd202f52	-0.03910763
116	0xbd0fa2a5	-0.03506722
117	0x3c306f45	0.010768716
118	0x3dacbd6d	0.084345676
119	0xbc2ae02f	-0.010429426
120	0x3d873cfd	0.066034295
121	0x3dc74c3b	0.09731337
122	0x3d9009a0	0.07033086
123	0xbbfb2766	-0.007664609
124	0xbd01be06	-0.03167536
125	0x3cf852cf	0.030312924
126	0xbd48c042	-0.049011476
127	0xbc5080e0	-0.012726039
128	0xbd85b68c	-0.06528959
129	0x3d6f8e1a	0.058485128
130	0x3dadb500	0.08481789
131	0x3d5a510a	0.05329994
132	0xbd36b5e3	-0.044607054
133	0xbd4152cd	-0.047198106
134	0x3cdafdac	0.026732288
135	0x3b3b642a	0.0028593638
136	0xbbc9371d	-0.006140603
137	0x3decd191	0.11563409
138	0x3cb475b0	0.022028774
139	0xbcd48b9c	-0.025945477
140	0x3d5501f8	0.05200383
141	0x3db19d86	0.08672623
142	0x3c37ce8f	0.011218681
143	0x3ddb2984	0.10701278
144	0x3d02c089	0.031921897
145	0x3d9ca934	0.076494604
146	0xbd48ac92	-0.0489927
147	0x3d6f07dd	0.05835711
148	0x3b28dc71	0.002576616
149	0xbb86c356	-0.0041126413
150	0x3dbcc5a8	0.092173874
151	0x3cc0ee38	0.023551092
152	0x3dc752de	0.097326025
153	0x3cd57097	0.026054664
154	0xbcaeb150	-0.021324784
155	0x3ceb65bb	0.028735032
156	0xbd6eb0b6	-0.058273993
157	0xbc9f1ce5	-0.019422958
158	0x3db8a65b	0.09016105
159	0x3dcbf4d1	0.099588044
160	0xbd1cf4ee	-0.03831952
161	0xbd33b301	-0.043871883
162	0xbd1242cc	-0.035708234
163	0xbcd11c06	-0.025526058
164	0x3d771feb	0.060333174
165	0x3dc155b4	0.09440175
166	0xbd295626	-0.041341923
167	0x3c97b07e	0.018516775
168	0xbd429cd4	-0.047512844
169	0x3d4e7643	0.050405752
170	0xbc8577da	-0.016292501
171	0x3d05ad1e	0.0326358
172	0x3db56101	0.08856393
173	0x3dc82ea5	0.09774522
174	0x3c03b5fe	0.008038996
175	0x3d66b40b	0.056324046
176	0x3d43a405	0.047763843
177	0x3cf634fd	0.030054564
178	0x3c413324	0.011791978
179	0xbc9bed5d	-0.019034082
180	0x3dd91ee2	0.106015936
181	0x3d171c8f	0.03689247
182	0xbc033a3d	-0.008009491
183	0xbd502d6d	-0.05082457
184	0xbd1cd57a	-0.038289525
185	0x3c14f07c	0.009090539
186	0x3d07010b	0.03295998
187	0xbcafe3fc	-0.021471016
188	0x3de73101	0.11288644
189	0x3d19bd95	0.037534315
190	0x3d74d73f	0.059775587
191	0xbd84cacf	-0.06483995
192	0x3c371e06	0.011176592
193	0x3db20aee	0.08693491
194	0x3d0c4fa8	0.034255654
195	0x3d6f7f95	0.05847128
196	0xbc0af44b	-0.008481096
197	0x3c97a6df	0.018512188
198	0x3d1da689	0.0384889
199	0x3d04e8d4	0.032448605
200	0x3cb62805	0.02223588
201	0x3d5e4347	0.05426338
202	0x3d019371	0.03163475
203	0x3d89ad5a	0.06722517
204	0x3d1bf563	0.038075816
205	0xbd608b65	-0.054820437
206	0x3c1a99e7	0.009436107
207	0x3dc7f90f	0.09764301
208	0xbd17fc3c	-0.037105784
209	0x3d1461a2	0.036225922
210	0x3d64a111	0.055817667
211	0xbd11b771	-0.035575334
212	0xbd5284e0	-0.05139625
213	0xbbac6b68	-0.0052618273
214	0x3de601f0	0.11230838
215	0x3dccb5b3	0.09995594
216	0xbbc268b3	-0.0059328913
217	0xbd084176	-0.033265553
218	0xbc34159d	-0.010991481
219	0x3cdbce15	0.026831666
220	0x3cfc1c0e	0.030775096
221	0xbd45a6cc	-0.048254773
222	0xbd091202	-0.03346444
223	0x3d8b5500	0.06803322
224	0xbcec5a73	-0.028851723
225	0x3de9dd9b	0.11419221
226	0x3d9c5ef7	0.076353006
227	0x3ca3de88	0.020003572
228	0x3d9174c2	0.07102348
229	0xbd34fd55	-0.04418691
230	0x3c7dcf13	0.015491265
231	0x3bb2f623	0.0054614707
232	0xbd18b87a	-0.037285306
233	0x3da5410d	0.08069048
234	0x3c4cbe8c	0.012496602
235	0x3dac98ff	0.08427619
236	0xbd0c43ec	-0.034244463
237	0xbd284fe8	-0.04109183
238	0x3cb9ab89	0.022664802
239	0x3d0c9c93	0.03432901
240	0xba13a22e	-0.00056317716
241	0xbd64ffb7	-0.05590793
242	0xbc46af08	-0.012126692
243	0x3c51ecf9	0.012812846
244	0x3de189c0	0.11012602
245	0x3de87912	0.11351217
246	0x392970c9	0.00016159112
247	0x3dc27b68	0.09496194
248	0xbc99baae	-0.018765774
249	0x3b947107	0.0045300755
250	0xba3cc889	-0.0007201513
251	0x3c23c14f	0.009994819
252	0x3cf00fd4	0.029304422
253	0x3dd42cd9	0.103601165
254	0xbd68d78e	-0.056846194
255	0xbd66de8d	-0.056364585
